20191226 - Homework #6/exp_Pendulum-v0/actor.pth (torch_old, 489846 bytes, 5 tensors)

l1.weight f4 [400, 3]
0	0xbf00a375	-0.50249416
1	0xbf3ab855	-0.7293752
2	0x3e23d49a	0.1599907
3	0xbeba13e3	-0.36343297
4	0xbf6bf68b	-0.9217307
5	0xbe7891e6	-0.24274406
6	0x3ef8e989	0.48615673
7	0xbf3b6ddb	-0.732145
8	0x3da249d7	0.0792424
9	0xbe5f4620	-0.21804094
10	0x3f376351	0.7163592
11	0x3d8d34fd	0.06894872
12	0xbed3ac69	-0.41342476
13	0x3d8af0a8	0.06784183
14	0x3e9d8923	0.3076869
15	0x3ceb8b2c	0.028752886
16	0x3ecfae87	0.4056284
17	0x3d4e4f6f	0.050368723
18	0xbe9263d9	-0.28591803
19	0xbf4f1d39	-0.80903965
20	0xbd0a3976	-0.033746205
21	0x3de9d328	0.11417228
22	0x3dc7e971	0.09761322
23	0x3cd90a38	0.02649413
24	0xbd969179	-0.073519655
25	0x3da02f00	0.078214645
26	0xbe31f1a5	-0.17377336
27	0x3f50b287	0.8152241
28	0x3eddbfbf	0.43310353
29	0x3b937c16	0.004500876
30	0x3d8dc25e	0.06921838
31	0xbf797b0c	-0.9745338
32	0x3d931395	0.07181469
33	0xbf2b5aee	-0.6693562
34	0x3ed5e914	0.41779387
35	0x3db1e510	0.08686268
36	0xbe012b6c	-0.1261422
37	0x3ece2dc1	0.40269282
38	0x3d5f6cda	0.05454717
39	0x3f1cf46b	0.6131045
40	0x3ed1e3b9	0.4099405
41	0x3e243968	0.16037524
42	0xbdd8990f	-0.105760686
43	0xbf8dbfa3	-1.1074108
44	0xbee1ed7d	-0.44126502
45	0x3e0cc0cc	0.13745421
46	0x3feb7228	1.8394213
47	0x3e698655	0.2280515
48	0x3f08f431	0.53497607
49	0xbf230ea6	-0.63694227
50	0xbefbf1dd	-0.49207965
51	0x3f2c00e9	0.6718889
52	0xbdcb2844	-0.099197894
53	0xbeafd6dc	-0.34343612
54	0xbd17129c	-0.03688298
55	0xbf0938cf	-0.5360231
56	0xbe0ef77b	-0.13961594
57	0x3d965e95	0.07342259
58	0x3f38948a	0.7210165
59	0x3e2afcd5	0.1669801
60	0xbe36cd17	-0.17851673
61	0xbf3de4e0	-0.7417736
62	0x3e8b2313	0.27175197
63	0x3d374b33	0.04474945
64	0x3eb7bb3f	0.35885045
65	0xbe428992	-0.18997791
66	0x3c9f2c23	0.019430226
67	0xbfa4ad00	-1.2865295
68	0x3d3b207d	0.04568528
69	0x3e83bcde	0.25730032
70	0x3f318ffa	0.69360316
71	0x3ea1536d	0.3150896
72	0x3e5e02ac	0.21680707
73	0xbfa8689b	-1.3156923
74	0xbe9a37a2	-0.3012057
75	0xbed2344f	-0.41055533
76	0x3f010d75	0.5041116
77	0xbea25ce3	-0.31711492
78	0xbee3d974	-0.4450184
79	0xbf18e2b7	-0.5972094
80	0x3da8aca9	0.08236057
81	0x3dac93b5	0.084266104
82	0xbe3717c3	-0.17880158
83	0x3e45f41f	0.19331406
84	0xbe22240d	-0.15834065
85	0x3f584b4a	0.8448988
86	0x3e49c6e6	0.1970478
87	0x3eb6ae5c	0.356799
88	0x3fa4c18e	1.2871568
89	0x3e2ea498	0.17054975
90	0xbe5d5ffd	-0.21618648
91	0xbfa2dd7c	-1.2723842
92	0xbe9df9a8	-0.30854535
93	0xbd30051a	-0.042973615
94	0x3fd09d91	1.6298085
95	0x3e86e1d8	0.2634418
96	0x3eaa9842	0.33319288
97	0xbe505706	-0.20345697
98	0x3e8b27c7	0.27178785
99	0xbef1b76b	-0.4721025
100	0x3e85e576	0.26151627
101	0xbcf6f1c1	-0.030144574
102	0x3e7fe436	0.249894
103	0xbeb398a5	-0.35077396
104	0xbdbb9415	-0.09159104
105	0xbedea6a5	-0.43486515
106	0xbe434954	-0.19070941
107	0x3ebc167d	0.36735907
108	0x3e3220ca	0.1739532
109	0x3eface64	0.4898559
110	0xbe76425e	-0.24048755
111	0xbf1ab99f	-0.60439485
112	0xbd5d908c	-0.05409293
113	0xbe8b9569	-0.27262428
114	0xbeb52d4a	-0.35386115
115	0xbea6c938	-0.32575393
116	0x3ea74584	0.32670224
117	0xbd9278b8	-0.071519315
118	0xbe2ae0c1	-0.166873
119	0xbd0aa9f2	-0.03385348
120	0xbeb909a1	-0.3614016
121	0xbf8c0138	-1.0937872
122	0xbe707768	-0.2348305
123	0xbe3b9cf1	-0.18321587
124	0x3f2fb2de	0.68632305
125	0xbe7b65ea	-0.24550596
126	0xbe810bde	-0.25204366
127	0xbf80d5e3	-1.0065273
128	0xbd43b237	-0.04777738
129	0xbdc7d6b6	-0.0975775
130	0x3f429960	0.7601528
131	0xbe471af3	-0.19443874
132	0xbe59895a	-0.21243802
133	0x3dee1e91	0.11626924
134	0x3e971a76	0.29512376
135	0xbe194a9a	-0.14969864
136	0xbfcfda45	-1.6238486
137	0xbe1ccc98	-0.15312421
138	0xbe8465a2	-0.2585879
139	0x3eb41069	0.3516877
140	0xbd9af397	-0.07565992
141	0xbf328853	-0.69739264
142	0xbf551a2d	-0.83243066
143	0xbe697001	-0.22796632
144	0xbf0e4382	-0.5557176
145	0x3eee2347	0.4651129
146	0x3e40668c	0.18789119
147	0x3ea48177	0.32130024
148	0xbf83ac01	-1.0286866
149	0x3e87e3ee	0.26541084
150	0x3b8d3747	0.004309568
151	0x3dcfb7e7	0.101424985
152	0x3c80ade6	0.015707921
153	0x3f002ff2	0.5007316
154	0x3d1a98fc	0.037743554
155	0xbe6c5911	-0.23080851
156	0xbe75e0fb	-0.24011604
157	0xbed69ed6	-0.41918057
158	0x3c3262ed	0.010887844
159	0xbf0ad16d	-0.5422581
160	0xbef80c96	-0.48447102
161	0x3e1b75d7	0.15181671
162	0xbf0f1ce4	-0.5590346
163	0xbdede074	-0.11615077
164	0xbe9e31a1	-0.3089724
165	0xbe4119b6	-0.18857464
166	0x3f80135a	1.0005906
167	0x3e6e8b58	0.23295343
168	0x3f320b58	0.6954856
169	0x3e7970c3	0.24359421
170	0x3dbe852b	0.093027435
171	0xbf06bf24	-0.5263541
172	0x3f2d5195	0.6770261
173	0x3e966447	0.2937338
174	0xbf2427ac	-0.64123034
175	0x3e75e2f9	0.24012364
176	0x3ed74b75	0.42049757
177	0xbd82a35d	-0.06378815
178	0xbf97098d	-1.179979
179	0xbe8b31bd	-0.27186385
180	0x3f2de103	0.67921466
181	0x3eb452b0	0.35219336
182	0x3ea80a0d	0.32820168
183	0x3e5733dd	0.21015878
184	0x3e9c1229	0.30482605
185	0xbe822d2d	-0.2542509
186	0xbe9feb58	-0.3123424
187	0x3f8d39ce	1.1033266
188	0x3e8cfd19	0.27536848
189	0x3f33e745	0.70274764
190	0x3f9c16af	1.2194422
191	0x3eed8d14	0.46396697
192	0xbdab1011	-0.08352674
193	0xbe822f5a	-0.2542675
194	0xbcc9d729	-0.02463873
195	0xbee337e1	-0.4437857
196	0xbcf2d245	-0.02964128
197	0xbe89f2e9	-0.26943138
198	0x3f5baf2d	0.8581417
199	0x3f0ee8b6	0.5582384
200	0x3eaad956	0.3336894
201	0x3eb0c476	0.34524888
202	0x3e489326	0.19587383
203	0x3e06013f	0.13086413
204	0x3deec12f	0.116579406
205	0x3f063945	0.52431136
206	0x3df369f6	0.11885445
207	0xbe804475	-0.2505223
208	0x3e6ef139	0.23334207
209	0x3d082244	0.033235803
210	0xbdb66b80	-0.08907223
211	0xbd189748	-0.037253648
212	0x3e4711af	0.1944034
213	0xbcd05d8b	-0.02543523
214	0x3f672861	0.9029599
215	0x3e8a5690	0.27019167
216	0x3f0790a3	0.52955073
217	0xbe360805	-0.17776497
218	0xbefcb66c	-0.49357927
219	0x3edea839	0.4348772
220	0xbe7e8571	-0.24855591
221	0xbe499ec5	-0.19689472
222	0x3dc21bf1	0.09477986
223	0xbf894b56	-1.0726116
224	0xbeacaa14	-0.3372351
225	0xbeb5ead4	-0.35530722
226	0x3edd3f56	0.43212384
227	0x3d70859b	0.058721166
228	0x3f263ef9	0.6493984
229	0xbf58ef11	-0.84739786
230	0xbe650498	-0.22365034
231	0xbd9398c8	-0.07206875
232	0xbee72381	-0.45144275
233	0xbdf1f2f8	-0.11813921
234	0x3ecb5086	0.39709872
235	0xbeb295ea	-0.3488
236	0xbe0a4e75	-0.13506491
237	0xbc25bceb	-0.010115842
238	0xbf842a0f	-1.0325335
239	0xbddf8a44	-0.10915044
240	0xbef4dd7c	-0.4782523
241	0x3d3a7f26	0.045531414
242	0x3da017ed	0.078170635
243	0xbeae163c	-0.34001338
244	0xbfa24256	-1.2676494
245	0xbe901e09	-0.28147915
246	0xbe1f8ba3	-0.15580611
247	0xbeb73c6b	-0.35788283
248	0x3cc3abc5	0.023885617
249	0xbd799ac6	-0.06093862
250	0xbf54f7fa	-0.8319088
251	0x3d08f23f	0.03343415
252	0x3e24cc5f	0.16093586
253	0x3f400bfa	0.75018275
254	0x3e913e8e	0.28368038
255	0x3e913e8a	0.28368026

l1.bias f4 [400]
0	0xbede3c03	-0.4340516
1	0xbdc99cb4	-0.09844342
2	0xbe5b8a8d	-0.21439572
3	0x3e6af27a	0.2294406
4	0xbed56183	-0.41675958
5	0x3dbec3d8	0.09314698
6	0x3e3e55ad	0.1858737
7	0xbe1f75b2	-0.15572241
8	0x3c8f0ebe	0.017463084
9	0xbed15535	-0.4088532
10	0xbe3b8b07	-0.18314753
11	0x3eb5b547	0.35489866
12	0x3db7a1d5	0.08966414
13	0xbdfc0e30	-0.123073936
14	0xbeeb416f	-0.4594836
15	0x3c96ae01	0.018393518
16	0xbd729085	-0.059219856
17	0xbf3088d6	-0.68958795
18	0x3dcab85a	0.098984435
19	0x3efd9ea6	0.49535102
20	0xbf04ceaf	-0.51877874
21	0xbd30df6b	-0.043181818
22	0xbdc0d55f	-0.09415697
23	0x3e2803b4	0.16407663
24	0xbec60471	-0.38675264
25	0xbec77e53	-0.38963565
26	0x3e8d2518	0.27567363
27	0xbe742944	-0.23843867
28	0xbe444b07	-0.19169246
29	0xbe7bed01	-0.24602129
30	0xbebff9ab	-0.3749517
31	0x3e3938d7	0.18088089
32	0xbf71bdee	-0.94430435
33	0xbd4bedb8	-0.049787253
34	0x3e42b10b	0.19012849
35	0xbf058ddb	-0.5216958
36	0x3e658f3f	0.22417925
37	0xbe57cb4a	-0.21073642
38	0xbf03db8e	-0.5150689
39	0xbc4d81fc	-0.012543198
40	0xbe148c7c	-0.14506716
41	0xbd1f19b3	-0.038842868
42	0x3e7bb866	0.24582061
43	0x3d97ea83	0.074177764
44	0xbf16fa5f	-0.58975786
45	0x3d601e3c	0.054716334
46	0xbcefe712	-0.029284988
47	0x3e89097a	0.26765043
48	0xbea0bb20	-0.31392765
49	0xbdffcec8	-0.12490612
50	0xbd84b0f5	-0.064790644
51	0xbf051374	-0.5198281
52	0x3e66abae	0.22526428
53	0xbdd4a21a	-0.10382481
54	0xbec1b090	-0.3783002
55	0xbe6bae04	-0.230156
56	0xbf0a8da4	-0.54122376
57	0xbf1f9ded	-0.6235035
58	0xbf12df7c	-0.5737226
59	0xbee56baf	-0.4480872
60	0xbf02b7b2	-0.51061547
61	0xbe4de87d	-0.20108218
62	0xbe37ac72	-0.17936876
63	0xbf17a5aa	-0.5923716
64	0xbd844ac7	-0.06459575
65	0xbeca7baa	-0.39547473
66	0xbf064ce9	-0.52461106
67	0xbe8b94f4	-0.2726208
68	0x3da4e89d	0.0805218
69	0x3e037e60	0.12841177
70	0xbf2f109d	-0.68384725
71	0xbee9a678	-0.45634818
72	0xbe9935fe	-0.29924005
73	0x3e9e94db	0.30972943
74	0xbe616e5a	-0.22014752
75	0x3d3e5313	0.046465944
76	0x3e9ea7c1	0.3098736
77	0xbe0550b7	-0.13019072
78	0x3de76efd	0.11300466
79	0xbe8606d1	-0.26177076
80	0xbd904a71	-0.070454486
81	0xbe85ec1b	-0.26156697
82	0x3de47812	0.11155714
83	0x3d2fa8b9	0.042885516
84	0xbf1dd9e8	-0.61660624
85	0xbec99637	-0.39372417
86	0x3d04fef4	0.032469705
87	0xbebf7c51	-0.37399533
88	0xbdc189fe	-0.09450148
89	0xbf0da1f4	-0.55325246
90	0xbb05f0fc	-0.0020437827
91	0xbeeec739	-0.4663637
92	0xbd47a590	-0.048741877
93	0x3ea851f3	0.32875022
94	0x3d45bb57	0.048274364
95	0xbe4c79fb	-0.19968407
96	0xbdb1f699	-0.08689613
97	0x3ea007dd	0.31256
98	0xbc92bd9d	-0.01791268
99	0xbe8a5e51	-0.27025083
100	0xbe2720cb	-0.16321103
101	0x3ddacba6	0.10683374
102	0xbf1a18d9	-0.60194165
103	0x3e872f5c	0.2640332
104	0xbe2668f0	-0.16250968
105	0xbd89df4c	-0.067320436
106	0x3de489f1	0.11159123
107	0xbe902c23	-0.28158674
108	0x3ee04d69	0.4380906
109	0x3da3dfe9	0.08001692
110	0x3c67b45c	0.014142122
111	0x3e650847	0.22366439
112	0x3ea56c80	0.3230934
113	0xbe509f16	-0.20373186
114	0x3e9bf36a	0.30459148
115	0xbeb77335	-0.35830083
116	0xbe8b97ba	-0.27264196
117	0xbe8738e0	-0.2641058
118	0xbeb30f12	-0.34972435
119	0x3cccf1bd	0.025017614
120	0x3da67bd3	0.08129086
121	0x3e117da6	0.14208087
122	0xbf3709b0	-0.71499157
123	0xbd808bf0	-0.06276691
124	0xbe48749b	-0.19575731
125	0x3c1d0004	0.009582523
126	0xbef0d0d3	-0.4703432
127	0xbdca4a35	-0.09877435
128	0xbddc89cd	-0.10768471
129	0x3e35c895	0.17752297
130	0x3d69d401	0.05708695
131	0xbe2c7ebd	-0.16845222
132	0xbe90d377	-0.28286335
133	0xbd6a9e9a	-0.05728016
134	0x3e32490a	0.17410675
135	0xbe9fcd6e	-0.31211418
136	0x3ec65b28	0.38741422
137	0xbeb75601	-0.35807803
138	0x3ee1c78d	0.44097558
139	0xbcc18bb9	-0.023626195
140	0xbe9dada8	-0.30796552
141	0x3ec865c5	0.39140144
142	0x3e8c0a64	0.27351677
143	0xbf067a3a	-0.5253025
144	0x3e738d0a	0.23784271
145	0x3e89ccee	0.2691416
146	0xbd1cefff	-0.038314816
147	0xbe9651a2	-0.29359156
148	0xbec1e6cd	-0.378714
149	0xbf196501	-0.59919745
150	0xbdb623a2	-0.08893515
151	0xbf18fe86	-0.5976337
152	0x3dfa2981	0.122149475
153	0xbf238968	-0.6388154
154	0xbea0c93d	-0.31403533
155	0x3e687234	0.22699815
156	0x3dbd2015	0.09234635
157	0xbbc24ede	-0.005929812
158	0x3e0e1416	0.1387485
159	0x3e54b6f9	0.20772924
160	0x3dd6b056	0.10482852
161	0xbdf93282	-0.12167837
162	0x3eb330db	0.3499821
163	0xbea437e1	-0.32073882
164	0x3e58e988	0.21182835
165	0xbf07b77e	-0.5301436
166	0x3d6d478e	0.057929568
167	0x3e52091d	0.20511289
168	0xbedbd86c	-0.42938554
169	0xbe6b7cc4	-0.22996813
170	0xbcbb066e	-0.022830214
171	0xbf2a0882	-0.6641923
172	0xbf2e1143	-0.6799509
173	0xbe0610d6	-0.1309236
174	0xbdd68353	-0.10474267
175	0xbc440d28	-0.011966027
176	0xbf1df15c	-0.6169641
177	0x3dc13a0a	0.09434898
178	0xbf0b040f	-0.5430307
179	0xbeb218f2	-0.34784657
180	0x3e907f61	0.28222182
181	0x3e7f54fe	0.24934766
182	0xbe45aae9	-0.19303478
183	0xbefee061	-0.49780563
184	0x3d962acb	0.07332381
185	0x3c9c0982	0.019047502
186	0xbe910be8	-0.28329396
187	0x3e0585a8	0.13039267
188	0xbf1f12b9	-0.62137944
189	0xbea4cf9e	-0.3218965
190	0xbe65f349	-0.22456087
191	0x3e94a756	0.29033917
192	0xbcf381a2	-0.0297249
193	0xbeccd008	-0.40002465
194	0xbeb38d45	-0.35068718
195	0x3e6e47fa	0.23269644
196	0x3e23e79a	0.16006318
197	0x3dcf180e	0.1011201
198	0xbe77d271	-0.24201371
199	0x3ea75d62	0.32688433
200	0xbec9639f	-0.39333817
201	0xbe58a0f1	-0.21155144
202	0xbde2e32a	-0.11078484
203	0x3d4200cb	0.047364037
204	0xbe9937df	-0.2992544
205	0xbf0376fe	-0.5135344
206	0xbe0a8720	-0.13528109
207	0x3e3a693f	0.1820421
208	0xbe44009c	-0.19140857
209	0x3e8a90e6	0.27063674
210	0xbe02cccf	-0.12773441
211	0xbf0334e4	-0.5125258
212	0xbe5aa071	-0.21350266
213	0x3e51b5ae	0.20479462
214	0xbe5d2dde	-0.21599528
215	0x3e241c02	0.16026309
216	0xbd9a2ce1	-0.07528091
217	0xbebf55ec	-0.3737024
218	0xbf0ba747	-0.5455212
219	0x3e17317d	0.14764972
220	0xbf129f47	-0.5727429
221	0xbe0f12a7	-0.13971959
222	0xbf15228b	-0.58255833
223	0xbcfa7478	-0.030573115
224	0xbf4645ac	-0.7745006
225	0xbea19272	-0.3155704
226	0x3eb1e717	0.3474662
227	0xbe9b0f4c	-0.30285108
228	0x3dafa2d0	0.08575976
229	0x3e1b8c57	0.15190254
230	0xbf109549	-0.5647779
231	0xbd802ef9	-0.06258959
232	0xbd466424	-0.048435345
233	0x3e50c164	0.20386273
234	0xbe8a9a7b	-0.27070984
235	0xbf0d4c27	-0.55194324
236	0x3bd0f82a	0.0063772397
237	0xbef257ef	-0.47332713
238	0xbed1b1a2	-0.40955836
239	0x3cfc3d3c	0.030790918
240	0xbdf543bb	-0.11975809
241	0x3c7c116c	0.015385013
242	0x3d60d0ee	0.05488675
243	0x3e772c92	0.24138096
244	0xbe1ea9c7	-0.15494452
245	0x3e9893fa	0.29800397
246	0xbe4d130c	-0.20026797
247	0xbdb7ed27	-0.0898078
248	0xbef6cce7	-0.48203203
249	0x3db7d743	0.08976605
250	0x3e9a8b37	0.30184337
251	0xbe2bd74c	-0.16781348
252	0xbf003721	-0.5008412
253	0xbe691c57	-0.22764717
254	0xbe2f65cf	-0.1712868
255	0xbf07345e	-0.5281428

l2.weight f4 [300, 400]
0	0xbb5dc3a9	-0.0033838546
1	0x3b98b2de	0.0046599945
2	0x3cad57bd	0.021160001
3	0x3c17550f	0.009236588
4	0x3d6db755	0.058036167
5	0xbdb28af3	-0.08717909
6	0xbd302110	-0.04300028
7	0x3a31e382	0.00067859155
8	0xbdc304c0	-0.0952239
9	0xbdcd8a18	-0.10036105
10	0xba81fb07	-0.0009916731
11	0xbafe1ce8	-0.0019387277
12	0x3d50adb6	0.050946914
13	0xbd0098a1	-0.03139556
14	0xbc51993e	-0.012792883
15	0x3c8491c8	0.016182795
16	0xbdc5410d	-0.09631548
17	0xbdb41a89	-0.08794124
18	0xbca14ff6	-0.019691449
19	0xbd8428f4	-0.06453124
20	0x3c8b5d6c	0.01701232
21	0xbd88fe3e	-0.06689118
22	0xbb8124fa	-0.0039411755
23	0xbceb8253	-0.028748667
24	0xbcf4a49a	-0.029863644
25	0x3b10fc45	0.002212302
26	0x3d1ceadc	0.038309917
27	0x3d15f57e	0.036611073
28	0x3cd31a07	0.025769247
29	0xbd478b67	-0.04871693
30	0xbd3a6694	-0.045507982
31	0x3c9b0ace	0.01892605
32	0x3cfb68d2	0.03068963
33	0x3d7d7106	0.061875366
34	0xbc4e0bc0	-0.012576044
35	0xbd0e0af9	-0.034678433
36	0xbda9f361	-0.08298374
37	0x3bbc844e	0.0057530766
38	0xbcf55a8f	-0.029950408
39	0xbc883a64	-0.016629405
40	0xbd380de8	-0.044935137
41	0xbcde3af8	-0.027127728
42	0xbc9151b7	-0.01773916
43	0xbdc91a58	-0.09819478
44	0x3d2a1976	0.041528188
45	0x3cae2d6c	0.021261893
46	0x3c9d998b	0.019238254
47	0xbc8b13c6	-0.016977202
48	0xbd10c4a9	-0.0353438
49	0xbd5d0a4a	-0.05396489
50	0xbdaa54d2	-0.083169594
51	0x3b9a043d	0.0047002123
52	0xbcaa0b4c	-0.02075734
53	0x3bec168e	0.007204837
54	0x3a9940f7	0.0011692335
55	0xbcef1cde	-0.02918857
56	0xbd96f67c	-0.07371232
57	0xbd0440e0	-0.032288432
58	0x3c74eca9	0.014949002
59	0x3c3292a0	0.010899216
60	0x3c2422fb	0.010018106
61	0xbd4fc149	-0.05072144
62	0xbbeca27e	-0.007221519
63	0x3d14331f	0.036181565
64	0x3cd8fb27	0.026486946
65	0xbce6fd12	-0.028196845
66	0x3c7f90f8	0.015598528
67	0xbd82ae94	-0.063809544
68	0xbde476eb	-0.11155494
69	0x39b3946d	0.00034252126
70	0xbc64e8f5	-0.013971557
71	0xbc02671c	-0.0079591535
72	0xbd672694	-0.056433275
73	0xbd6fbd2f	-0.05853003
74	0xbd8f600a	-0.0700074
75	0xbc4f7be1	-0.012663812
76	0xbd385920	-0.04500687
77	0x3caf13ac	0.021371685
78	0xbd820708	-0.06348997
79	0xbdb11a3b	-0.08647581
80	0x3cb0bb18	0.021573588
81	0xbd1223de	-0.035678737
82	0xbc1dc7c1	-0.009630145
83	0x3cfdf388	0.030999914
84	0xbc9a324d	-0.018822813
85	0x3d70f441	0.05882669
86	0xbd9e2185	-0.07721237
87	0x3cef03f7	0.029176695
88	0xbdaabe11	-0.083370335
89	0x3c164cb7	0.009173564
90	0xbda75b55	-0.08171717
91	0xbd99619f	-0.07489323
92	0xbdcfbc83	-0.10143378
93	0x3cc206a8	0.023684815
94	0xbc65ea3e	-0.0140328985
95	0x3d540982	0.05176688
96	0x3ceacce1	0.028662147
97	0xbd4855e7	-0.048910048
98	0x3cfb41a1	0.030670943
99	0xbd09ac17	-0.033611383
100	0x3c19aa6f	0.009379013
101	0xbd438fb6	-0.047744475
102	0x3c9fff8a	0.01953103
103	0xbc56602d	-0.0130844535
104	0xbc751695	-0.014958997
105	0xbc94aa8e	-0.018147733
106	0xbd69456f	-0.056950983
107	0xbb3b4e9f	-0.0028580797
108	0xbd148579	-0.036260102
109	0xbd1a5f5b	-0.037688594
110	0x3c9367a5	0.017993758
111	0x3d2dc9ce	0.042428784
112	0xbd0a9840	-0.033836603
113	0xbc01ddc2	-0.007926406
114	0xbd1aef5f	-0.03782594
115	0xbc960424	-0.018312521
116	0x3d5dde6d	0.0541672
117	0xbcdc06fe	-0.026858803
118	0x3ce2b6fa	0.02767514
119	0x3c429d33	0.0118782995
120	0x3d2bf7be	0.041984312
121	0xbdbb910d	-0.091585256
122	0xbcafe42d	-0.021471107
123	0xbd8a32b7	-0.06747954
124	0xbd00a61a	-0.031408407
125	0xbd19d582	-0.037557133
126	0xbbc7c9f8	-0.0060970746
127	0xbdbddd5e	-0.09270738
128	0x3b13add1	0.0022534023
129	0xbde18960	-0.1101253
130	0x3bb173d5	0.0054154196
131	0xbd1941f0	-0.0374164
132	0x3d2c5096	0.04206904
133	0xbcd9d652	-0.026591454
134	0xbdf6742b	-0.12033876
135	0x3c65b9c9	0.014021345
136	0xbdee04ae	-0.11621986
137	0xbda36b3d	-0.079794385
138	0xbd2f99bb	-0.04287122
139	0xba1f47f2	-0.00060760893
140	0xbca3876c	-0.019962035
141	0x3d0a0470	0.03369564
142	0xbcd26874	-0.025684573
143	0xbd187923	-0.0372249
144	0xbd1b9271	-0.037981454
145	0xbdbb02e7	-0.09131413
146	0x3d934469	0.071907826
147	0xbd245b27	-0.040125992
148	0xbdbe4c98	-0.09291953
149	0xbd962be4	-0.0733259
150	0x3a43e770	0.00074731465
151	0xbd718fa3	-0.058974873
152	0xbac9c8d0	-0.001539493
153	0xbd81ce32	-0.06338157
154	0x3c5c4f8d	0.013446701
155	0xbc3de37d	-0.011589882
156	0x3c5a4bca	0.013323734
157	0x3c885cca	0.016645808
158	0xbd761314	-0.060076788
159	0xbd4905a3	-0.04907764
160	0xbdaa64ae	-0.083199844
161	0x3d53292a	0.05155293
162	0x3c90b7f5	0.017665843
163	0xbc65295d	-0.013986913
164	0xbb460c02	-0.003021956
165	0x3d5f0783	0.054450523
166	0xbb98f744	-0.0046681482
167	0xbd5c8f4c	-0.053847596
168	0xbd64b7b6	-0.055839263
169	0xbd4c5b67	-0.049891856
170	0xbc9dcfc6	-0.019264113
171	0x3d49c164	0.049256697
172	0xbbd39941	-0.0064574783
173	0x3d001204	0.03126718
174	0xbcb69e07	-0.02229215
175	0xbdd2ca3f	-0.10292482
176	0x3cb958ed	0.02262541
177	0xbdcc2784	-0.099684745
178	0xbd104c0c	-0.035228774
179	0xbcbb32ec	-0.02285143
180	0xbcc6f6fb	-0.024287691
181	0xbcdb4778	-0.026767477
182	0x3ca0a0a3	0.019607848
183	0x3c5d41f7	0.013504497
184	0xbc8a634d	-0.016893053
185	0xbd947ddf	-0.072505705
186	0xbd611b70	-0.054957807
187	0xbd6d38a7	-0.057915356
188	0xbd4728d1	-0.04862291
189	0x3d6a729a	0.0572382
190	0xbb5ca54f	-0.0033667868
191	0x3d6326f8	0.055457085
192	0xbdd07850	-0.10179198
193	0xbca1f99a	-0.01977234
194	0x3cb646ef	0.02225062
195	0x3d4f670d	0.050635386
196	0xbd87630e	-0.0661069
197	0x3d555816	0.05208596
198	0xbc6a2f1e	-0.01429346
199	0x3c9c4826	0.019077372
200	0x3d144b6f	0.03620475
201	0x3c915a55	0.017743269
202	0x3cd81be1	0.026380481
203	0xbd3d51ba	-0.04622052
204	0xbc2bfb64	-0.010496948
205	0x3d48c7b0	0.04901856
206	0xbd73cb33	-0.059519958
207	0x3d00c10a	0.031434096
208	0xbcf3504b	-0.029701373
209	0xbca66e23	-0.02031619
210	0xbd1ddbb9	-0.038539622
211	0x3d16feb7	0.03686401
212	0x3d9b6120	0.075868845
213	0xbd127da4	-0.03576435
214	0x3d1e62ce	0.038668446
215	0xbd3d5a8b	-0.046228927
216	0xbd6fa2cc	-0.058504865
217	0xbd494ce0	-0.04914558
218	0xbd0296b5	-0.031882007
219	0xbc99ebdb	-0.018789222
220	0x3d117861	0.035515193
221	0xbd7c432c	-0.061587498
222	0xbcf6a7da	-0.030109335
223	0xbcf85380	-0.030313253
224	0x3aeb15d6	0.0017935585
225	0xbd026bb3	-0.03184099
226	0xbdb483c7	-0.08814197
227	0x3dc657ce	0.09684716
228	0xbd1165a7	-0.035497334
229	0xbd13ff5d	-0.036132205
230	0xbc240c87	-0.010012752
231	0xba85b191	-0.0010200014
232	0x3d8bb9b8	0.068225324
233	0xbd05fa13	-0.032709192
234	0xbc091a34	-0.008368064
235	0xbcc0189f	-0.02344924
236	0xbd321474	-0.043476537
237	0xbcc90e20	-0.024542868
238	0x3bdb69f1	0.006695979
239	0xbd7a61e6	-0.06112852
240	0xbc9f6e43	-0.019461757
241	0xbd446312	-0.047946043
242	0xbd0decfc	-0.034649834
243	0xbdd98fef	-0.10623156
244	0xbcc16353	-0.023606932
245	0x3ccb16ed	0.024791205
246	0xbd22e35c	-0.039767608
247	0xbda96b01	-0.082723625
248	0xbc06e0c2	-0.008232297
249	0x3c28bac0	0.010298431
250	0xbd2af2ad	-0.04173534
251	0xbde7fbca	-0.11327322
252	0x3d08427b	0.033266526
253	0x3cf8a072	0.030349944
254	0x3d293b29	0.041316185
255	0x3cfd46c2	0.030917529

l2.bias f4 [300]
0	0xbdb35bd8	-0.08757752
1	0xbd28b559	-0.04118857
2	0x3bbd7e85	0.0057829046
3	0xbb83ba1e	-0.0040199896
4	0x3c518a7b	0.012789364
5	0x3ae92d01	0.0017789901
6	0xbd284303	-0.041079532
7	0xbc5ded33	-0.013545322
8	0xb9f9f39e	-0.0004767449
9	0xbd46b29c	-0.04851018
10	0x3d3cd58b	0.046102088
11	0xbc030b8f	-0.007998361
12	0xbb2d3df0	-0.0026434623
13	0xbde6d705	-0.112714805
14	0x3d711477	0.058857407
15	0x3b08f1f2	0.0020896164
16	0xbd33546d	-0.043781687
17	0xbc1c68c2	-0.009546461
18	0xbb62d4fd	-0.0034611814
19	0x3c11b2c8	0.008892722
20	0x3d34448f	0.044010695
21	0xbb5d3cd3	-0.0033758178
22	0xbb1d27a7	-0.0023979933
23	0xbc406ab2	-0.011744188
24	0x3ce74faf	0.028236238
25	0xbc713446	-0.014721936
26	0x3d273f61	0.040831927
27	0x3bf34409	0.007423882
28	0xbd157ecb	-0.036497872
29	0xbd5c2b31	-0.053752128
30	0x3c95d06f	0.018287865
31	0xbd94c05c	-0.07263252
32	0xbbbe973a	-0.0058163675
33	0xbd48ba52	-0.049005814
34	0xbaf03c79	-0.0018328569
35	0x3d2130b3	0.039353084
36	0xbd4ef7cf	-0.050529297
37	0x3cec8520	0.028872073
38	0xbd1fceb8	-0.0390155
39	0xbb99b52c	-0.004690787
40	0xbd242c6b	-0.040081423
41	0xbd3e9e8d	-0.046537925
42	0xbced2259	-0.028947042
43	0xbc77b33a	-0.015118415
44	0x3c8f90a9	0.017525034
45	0xbd6160d1	-0.055023972
46	0xbd4ff0a0	-0.050766587
47	0x3d2b9ba7	0.04189649
48	0xbd260c13	-0.04053886
49	0x3d0bc7f4	0.034126237
50	0xbd39376f	-0.04521888
51	0x3c151831	0.009100006
52	0xbd92d268	-0.07169038
53	0x3b42819c	0.0029679304
54	0xbd0d9aa6	-0.034571312
55	0x3ca85f90	0.02055338
56	0xbc89bfb3	-0.016815042
57	0xbd169b58	-0.03676924
58	0xbd350833	-0.044197273
59	0xbce16d10	-0.027517825
60	0x3b081f8d	0.002077076
61	0x3d110e49	0.035414014
62	0x3ab0eeef	0.0013498942
63	0xbd9bf95f	-0.07615923
64	0xbd3b2f9f	-0.045699712
65	0x3c996e14	0.018729247
66	0x3d1442a0	0.03619635
67	0x3c51a539	0.01279574
68	0xbd9553dd	-0.07291386
69	0x3d05735d	0.032580722
70	0x3cd9c342	0.026582364
71	0xbc45475a	-0.012040937
72	0xbd4e679a	-0.05039177
73	0xbbcbd02f	-0.006219886
74	0x3c72863a	0.01480251
75	0x3d0137a6	0.03154721
76	0xbd34c665	-0.044134516
77	0xbcc36e46	-0.023856293
78	0xbd76f2b5	-0.060290057
79	0x3ca8706a	0.020561416
80	0x3cac1cc0	0.021009803
81	0xbc30bec5	-0.0107876705
82	0x3c7a2f4f	0.015270068
83	0xbbeaf717	-0.0071705687
84	0x3bfc4f85	0.007699909
85	0xbd811e6b	-0.0630463
86	0xbd0ff920	-0.035149693
87	0xbb20b1b0	-0.0024519973
88	0x3d7a190c	0.061059043
89	0xbdaf0ddd	-0.08547566
90	0xbd0976e3	-0.033560645
91	0x3d1a6fee	0.0377044
92	0x3c47821b	0.012177016
93	0xbcbb3916	-0.02285437
94	0x3b224734	0.0024761679
95	0xbc5ce7d1	-0.013483004
96	0xbcb3b886	-0.021938574
97	0x3c1dfd03	0.009642842
98	0xbcb7cbc0	-0.022436023
99	0xbd7d9187	-0.061906364
100	0xbd561b7e	-0.052272312
101	0xbd120fd9	-0.035659645
102	0x3c946aac	0.018117271
103	0x3c878103	0.01654101
104	0xbbde50fe	-0.0067845574
105	0xbd5a7c0b	-0.053340953
106	0x3cefa4b3	0.02925334
107	0xb924b082	-0.00015706013
108	0xbd52e903	-0.05149175
109	0xbda266f4	-0.07929793
110	0xbd453858	-0.048149437
111	0xbdadb144	-0.08481076
112	0xb9f844d6	-0.00047353533
113	0xbc0051d4	-0.007832009
114	0x3cfc923f	0.030831454
115	0xbcd19221	-0.025582375
116	0xbc4527e4	-0.012033436
117	0x3ca62642	0.020281915
118	0xbb8bae9e	-0.0042627594
119	0xbc1a1f77	-0.009406916
120	0xbc884680	-0.01663518
121	0x3c53a113	0.012916821
122	0xbc2f9f65	-0.010719155
123	0x3d8aa5ae	0.06769882
124	0x3de2e1ec	0.110782474
125	0x3c1876d4	0.009305675
126	0xbd5b755d	-0.053578723
127	0x3d1ad674	0.037802175
128	0xbbfbd784	-0.0076856036
129	0xbd515a2b	-0.05111138
130	0xbd8284d6	-0.06372993
131	0xbcf736c8	-0.030177489
132	0xbcedd665	-0.029032895
133	0xbcf49ef6	-0.029860955
134	0x3d8bbcb8	0.068231046
135	0xbc008f77	-0.007846705
136	0xbdf0c26d	-0.11755834
137	0x3d25dc37	0.040493216
138	0x3c089c96	0.008338114
139	0xbc672dbc	-0.014110025
140	0x3cf745e2	0.03018469
141	0xbda92e21	-0.082607515
142	0xbd632e41	-0.055464033
143	0xbcc921bf	-0.024552224
144	0xbd386cfb	-0.045025807
145	0xbd193eeb	-0.03741352
146	0xbba54ffe	-0.005044936
147	0x3d17a414	0.03702171
148	0x3b115009	0.0022172949
149	0xbb714fd7	-0.003682127
150	0xbb93af5b	-0.004506988
151	0xbd05c09d	-0.032654393
152	0xbd838a02	-0.06422807
153	0xbd0d2026	-0.034454487
154	0xbd4cb40a	-0.049976386
155	0xbcafadd7	-0.021445198
156	0xbd5ccdf5	-0.053907353
157	0x3d7f886f	0.062385973
158	0xbb89ac4e	-0.0042014485
159	0xbd319a80	-0.043360233
160	0xbcbe2632	-0.023211572
161	0xbb86d094	-0.00411422
162	0xbac19565	-0.0014769254
163	0xbcfc18b2	-0.030773494
164	0x3d031ef2	0.032011934
165	0xbd65450b	-0.055974048
166	0xbd2c429d	-0.042055715
167	0xbca70b34	-0.020391084
168	0xbc40e2c4	-0.011772815
169	0xbc2a7b14	-0.010405321
170	0xbd75cd4b	-0.060010236
171	0x3d16debf	0.03683352
172	0x3cc9d851	0.02463928
173	0xb9fbba66	-0.00048013328
174	0xbd5f321e	-0.054491155
175	0x3c8429d3	0.016133225
176	0xbcfa7317	-0.030572457
177	0xbd3a6d59	-0.04551444
178	0x3cdad7e6	0.026714277
179	0xbc58e4c8	-0.013238139
180	0xbc83ab6b	-0.01607295
181	0xbc877077	-0.01653312
182	0xbd152a48	-0.036417276
183	0xbdb66b6a	-0.08907206
184	0xbc14beef	-0.009078725
185	0xbd30075b	-0.042975765
186	0xbd366e79	-0.04453895
187	0xbcf69f0b	-0.030105134
188	0xbcb8c95d	-0.022556955
189	0x3c94e04f	0.018173365
190	0xbc17c7dd	-0.00926396
191	0xbcec10c6	-0.028816592
192	0xbcaa9187	-0.020821346
193	0xbd501d80	-0.050809383
194	0xbd9e585b	-0.07731696
195	0xbc47b5a0	-0.012189299
196	0xbd04940d	-0.032367755
197	0x3c835294	0.016030587
198	0xbd453758	-0.048148483
199	0xbd1e60d8	-0.038666576
200	0x3d147e82	0.03625346
201	0x3cdd9c83	0.02705217
202	0x3cd84195	0.02639846
203	0xbd862c6b	-0.06551441
204	0xbd943354	-0.072363526
205	0xbc87d14b	-0.01657929
206	0xbbae2b08	-0.0053151883
207	0x3cc69e5c	0.024245434
208	0x3d0f806a	0.035034575
209	0xbcfb0e8c	-0.030646585
210	0xbcf4f99d	-0.029904181
211	0xbc5b1f0d	-0.013374102
212	0xbd6644e8	-0.056218058
213	0xbd826a65	-0.063679494
214	0xbcc16495	-0.023607532
215	0x3c6e2982	0.014536263
216	0x3c19591d	0.009359625
217	0x3ca14f85	0.019691238
218	0xb9741b53	-0.00023279832
219	0xbd044c6e	-0.03229945
220	0x3c970cbd	0.018438691
221	0x3cbab860	0.022792995
222	0x3c358b30	0.011080548
223	0x3c8ba35b	0.017045667
224	0xbcd9cad5	-0.026585976
225	0xbc489eea	-0.012244919
226	0xbd73caf4	-0.059519723
227	0xbc828d6a	-0.015936572
228	0xbd944c3a	-0.072411016
229	0xbb55a5a2	-0.0032599946
230	0xbd737176	-0.059434377
231	0xbc8cc35c	-0.017182998
232	0xbc6af871	-0.01434146
233	0xbd5d2ba1	-0.053996686
234	0xbd49782f	-0.04918688
235	0x3cbfdce2	0.023420755
236	0xbc7937c9	-0.015211054
237	0xbd5eb8ed	-0.054375578
238	0xbd88f868	-0.06688005
239	0xbd1ae97f	-0.037820335
240	0x3d1c926a	0.03822557
241	0xbd6cbb60	-0.057795882
242	0xbd44c854	-0.04804261
243	0xbd5200f1	-0.05127043
244	0x3ba3eb22	0.0050023952
245	0x3cb0e075	0.021591404
246	0xbbf31feb	-0.0074195764
247	0x3cd5a92c	0.026081644
248	0x3d5b0645	0.053472776
249	0x3c151740	0.0090997815
250	0xbc92fa80	-0.017941713
251	0xbd105b78	-0.03524348
252	0xbd2fb0ac	-0.042893097
253	0x3d197939	0.037469123
254	0x3ccd3675	0.025050381
255	0x3c7735b6	0.015088489

l3.weight f4 [1, 300]
0	0xbac0f06b	-0.0014720088
1	0x3d68bdc6	0.056821607
2	0x3bfb0b7d	0.0076612816
3	0x3d591e10	0.053007185
4	0xbca2f603	-0.019892698
5	0xbdfa458c	-0.12220296
6	0xbd04e4f6	-0.032444917
7	0x3d0fe9b5	0.03513499
8	0x3e4fd925	0.20297678
9	0xbcf334b7	-0.029688222
10	0xba7d4666	-0.0009661674
11	0xbbb035af	-0.0053774933
12	0x3bc25741	0.0059308116
13	0x3cc5a23c	0.024125211
14	0x3e4be91b	0.19913141
15	0x3c8050f0	0.015663594
16	0xbf1bb260	-0.60819054
17	0x3e9418f1	0.2892528
18	0xbc407d5e	-0.01174864
19	0xbe07d715	-0.13265641
20	0x3ce52543	0.02797187
21	0xbdd6a9da	-0.10481615
22	0xbcb60eae	-0.022223797
23	0xba8c5f93	-0.0010709636
24	0xbc523024	-0.01282886
25	0x3d4020cd	0.04690628
26	0x3bce7ae3	0.0063012703
27	0xbd21f929	-0.03954426
28	0xbd178d0b	-0.036999743
29	0x3c550fca	0.013004253
30	0x3a8e418c	0.0010853275
31	0x3c8187a0	0.015811741
32	0xbd3c44e1	-0.045964126
33	0x3c8e1200	0.017342567
34	0xbb2902bc	-0.0025788983
35	0x3d11ccd7	0.03559574
36	0x3d013a41	0.031549696
37	0xbc486b45	-0.012232606
38	0x3f2cab97	0.67449325
39	0x3c7545dd	0.01497027
40	0x3d336f5e	0.04380738
41	0xbcef1808	-0.029186264
42	0xbb2da539	-0.0026496185
43	0x3ce5bb33	0.028043365
44	0xbc3e32f7	-0.011608831
45	0xbb95bab3	-0.0045693754
46	0xbddd87c5	-0.108169116
47	0x3d2680d7	0.040650215
48	0xbd1803e5	-0.03711309
49	0xbdc79215	-0.0974466
50	0x3d47ff12	0.04882724
51	0x3c93ab36	0.018025976
52	0x3cb4aed4	0.02205602
53	0x3d3a569d	0.045492757
54	0xbabc14e2	-0.0014349485
55	0xbd0a0440	-0.03369546
56	0xbd2bdcaf	-0.041958507
57	0xbc52915f	-0.012852042
58	0x3d3f4e5d	0.046705592
59	0xbb3cb003	-0.0028791435
60	0xbd131163	-0.035905253
61	0xbc79682e	-0.015222592
62	0x3c650bf2	0.013979899
63	0xbd336757	-0.043799724
64	0xbc844911	-0.016148122
65	0x3d12df1c	0.035857305
66	0xbcf77ccb	-0.030210873
67	0xba6573f9	-0.0008752938
68	0x3bf4a8ab	0.007466396
69	0x3ab3c354	0.0013714829
70	0xbd07d684	-0.033163562
71	0x3cd7cf34	0.02634392
72	0x3c88a185	0.016678581
73	0x3c86e5a4	0.016466923
74	0xbcb39a46	-0.02192415
75	0x3bec4d57	0.007211368
76	0x3c82b0f3	0.015953517
77	0x3a652ea5	0.00087426073
78	0xbc88f101	-0.016716482
79	0x3cb0b300	0.021569729
80	0xbc6592af	-0.014012023
81	0x3d40ea1f	0.047098275
82	0x3c443969	0.011976578
83	0xbcfea56a	-0.031084735
84	0xbd0fb005	-0.035079975
85	0xbb5e0b25	-0.0033881154
86	0xbca69263	-0.020333475
87	0x3d457d36	0.048215114
88	0xbec08589	-0.3760188
89	0x3cfba78b	0.03071954
90	0x3cc67214	0.024224319
91	0xbcb20d92	-0.021734986
92	0x3de0dc8a	0.109795645
93	0xbb81f23e	-0.003965645
94	0xbd09b9d4	-0.033624485
95	0x3b4a6a02	0.003088594
96	0xbce43cda	-0.027861048
97	0x3ba0b3ec	0.004904261
98	0xbdcee0dd	-0.10101483
99	0x3a8046c8	0.000978672
100	0xbcffe1fd	-0.03123569
101	0xbcf0286b	-0.029316148
102	0x3a2d9713	0.0006621938
103	0xbd5118df	-0.05104911
104	0xbc81fb2d	-0.01586684
105	0x3d49f409	0.049304996
106	0x3ef795a5	0.48356357
107	0xbbd51c57	-0.0065036225
108	0xbbdd5064	-0.006753968
109	0xbc8e332f	-0.01735839
110	0x3ecda0db	0.40161785
111	0xbb61510c	-0.0034380583
112	0x3b29dd39	0.0025919212
113	0x3d1b74b4	0.037953094
114	0x3c46c705	0.012132411
115	0x3c6c96d4	0.014440257
116	0x3a5f6dbe	0.0008523128
117	0x3a0e1c75	0.00054211105
118	0x3be0d8a2	0.006861762
119	0xb86a4db2	-5.5862307e-05
120	0x3a5ad54e	0.0008347825
121	0xbd0db3c1	-0.034595255
122	0x3c21d776	0.00987803
123	0xbc433f2b	-0.011916916
124	0xbe341ef2	-0.1758993
125	0xbd55701c	-0.05210887
126	0xbd2bbaf5	-0.041926343
127	0xbd04824b	-0.03235082
128	0x3a253227	0.0006301724
129	0x3b713d74	0.003681031
130	0x3bfdc04d	0.0077438713
131	0xbad901cb	-0.001655632
132	0xbc0ac0e8	-0.008468844
133	0xbc54b98d	-0.012983692
134	0xbe4186e2	-0.1889911
135	0x3d0fbf60	0.03509462
136	0x3ead8936	0.33893746
137	0xbc3fe17c	-0.0117114745
138	0x3d0f139b	0.034930807
139	0x3cf60722	0.030032698
140	0x3e17058f	0.14748214
141	0xbb0c0901	-0.0021367671
142	0x3ca7c50f	0.020479707
143	0x3c82f9a2	0.015988175
144	0xbd16c53e	-0.0368092
145	0xbe82b2ec	-0.25527132
146	0x3b84f55e	0.0040575704
147	0x3b0f1ab3	0.0021835982
148	0xbb922912	-0.0044604624
149	0xbc9e7019	-0.019340562
150	0xbb8a1bb8	-0.00421473
151	0xbb9ce7e7	-0.004788387
152	0xbbbfc74f	-0.005852617
153	0xbc881cdd	-0.016615326
154	0xbd4750b9	-0.048660967
155	0x3d309bc0	0.043117285
156	0xba330466	-0.00068289635
157	0xbceda478	-0.029009089
158	0xbca09971	-0.019604417
159	0x3bd326ee	0.0064438498
160	0x3b3a34f3	0.0028412908
161	0xbcc66d7b	-0.024222126
162	0xbd1f54f1	-0.038899366
163	0xbe6e6ec4	-0.23284441
164	0x3e8a5d57	0.27024338
165	0x3b60278b	0.0034203257
166	0xbcb7fda4	-0.022459812
167	0xbc3e5ffd	-0.011619565
168	0x3eab766c	0.33488786
169	0xba6268a7	-0.000863681
170	0xbcef1bf0	-0.029188126
171	0x3cbb1297	0.022836013
172	0xbaae1f1d	-0.0013284419
173	0xbbe46086	-0.0069695143
174	0xbcdd21a7	-0.026993586
175	0x3e2dd9f8	0.1697768
176	0xbc4c8771	-0.012483464
177	0x3c1ee580	0.009698272
178	0x3d498faf	0.049209293
179	0xbd0d4f44	-0.03449942
180	0x3b5d3cf1	0.0033758248
181	0xbc217356	-0.009854158
182	0xbd1704b7	-0.03686973
183	0xbd8dd519	-0.06925411
184	0xbc3c76c1	-0.0115029225
185	0xbc894b81	-0.016759636
186	0xbc769988	-0.015051253
187	0xba0b7585	-0.0005319941
188	0xbc8e3bd3	-0.01736251
189	0x3ceb9ed6	0.028762262
190	0x3cde55c0	0.027140498
191	0xbca904d4	-0.020632185
192	0xbd89d9ac	-0.06730971
193	0x3e45b1d2	0.19306114
194	0xbd88e6e9	-0.066846676
195	0xbc32f208	-0.010921963
196	0x3e81736d	0.25283375
197	0xbc9ed646	-0.019389283
198	0xbc451db5	-0.0120310085
199	0xbd4094d7	-0.047016945
200	0xbc6d4f4e	-0.01448424
201	0x3c1e8cf0	0.009677157
202	0x3c7ca811	0.0154209295
203	0x3e1bda12	0.15219906
204	0x3e8e2836	0.27765054
205	0xbd1a8ed1	-0.037733857
206	0x3e509e37	0.20372854
207	0xbcae23de	-0.021257337
208	0xbd0ee037	-0.034881797
209	0x3d113ed9	0.035460327
210	0xba4cced6	-0.00078128034
211	0xba65ba51	-0.000876342
212	0x3e42dea6	0.19030246
213	0x3d2116ff	0.03932857
214	0xbb515dd6	-0.00319468
215	0x3d46d210	0.048540175
216	0x3cbc7123	0.023003167
217	0xbbd6cdca	-0.0065552937
218	0x3da78478	0.08179563
219	0xbb10b41b	-0.0022080007
220	0xbbf06809	-0.0073366207
221	0x3aec1b1b	0.0018013449
222	0x3d1ba584	0.037999645
223	0xbd1fd332	-0.03901977
224	0x3dddf38d	0.10837469
225	0x3c98a62d	0.018633926
226	0x3c5356f6	0.012899151
227	0xbd28ee9b	-0.041243177
228	0x3e53ed0d	0.20695896
229	0xbeb3ce13	-0.3511816
230	0x3d026755	0.031836826
231	0x3c38c9ba	0.011278564
232	0xbcd0814f	-0.025452284
233	0x3cbf62ea	0.023362596
234	0xbd630e4f	-0.055433568
235	0x3c13bb3a	0.009016806
236	0x3ad777a3	0.0016438853
237	0x3d8ea968	0.069659054
238	0x3dab5562	0.08365895
239	0x3eeecd4a	0.46640998
240	0x3d20cec8	0.039259702
241	0xbd515aa9	-0.05111185
242	0x3d0dae94	0.03459032
243	0xbcd84e14	-0.026404418
244	0xbce151f3	-0.027504897
245	0x3c118854	0.008882601
246	0x3d266f69	0.040633593
247	0xbb8329fe	-0.0040028086
248	0x3d510cb7	0.051037516
249	0x3e1a4a06	0.150673
250	0x3d273738	0.040824145
251	0xbd497268	-0.049181372
252	0xbdae6ad7	-0.08516472
253	0x3caadd76	0.020857554
254	0xbd42a468	-0.04752007
255	0xbbb07b86	-0.005385819
