20191226 - Homework #6/exp_Pendulum-v0/critic.pth (torch_old, 491446 bytes, 5 tensors)

l1.weight f4 [400, 4]
0.06535006 -0.31069785 0.1155942 0.06587639 -0.602583 0.038878854 -0.23361424 -0.46051988
0.5275331 0.55251515 -0.32478955 -0.5149557 0.6554594 0.020877684 0.3774825 0.37483984
-0.050645374 -1.0602942 -0.21039915 -0.07873463 1.150112 -1.4743384 -0.42143092 -0.26080877
-0.35988435 -0.38278502 -0.111119725 0.220438 -0.47606042 1.0045687 0.13119508 -0.3161905
0.82162577 -0.52306914 -0.20019649 -0.0144739 -0.19085135 0.4508235 0.11422063 0.39517662
0.47839877 -0.24639128 0.3967918 0.1173892 -0.29334548 0.1598255 -0.37492302 0.3183661
0.87426525 0.65664893 0.2107076 -0.3672603 0.6873364 -0.31219757 0.08194265 0.4348732
-0.53981495 0.9094616 0.14422984 -0.14752771 0.04589716 -0.90448886 -0.20658636 -0.07088147
-0.055069033 -0.44104347 -0.12504144 0.48239368 -0.46059883 -0.29490176 -0.34210834 -0.029132178
-0.6914407 -0.41711384 -0.4106065 -0.21441862 1.0120089 0.82369244 0.29534572 0.13601735
-0.31191784 -0.72432286 -0.20954975 0.06764709 0.16864377 -0.16337676 0.453856 -0.18992695
-0.0060459753 0.5641515 0.0889904 0.05206245 -0.64863193 0.19763711 0.17732273 -0.33125368
0.04537726 -0.53594714 0.12870099 0.17929022 0.4639222 0.90811765 0.23146851 0.12144161
0.33038872 -1.0011231 0.017770441 -0.025675412 0.6668933 0.9121267 0.029547768 -0.4338158
-0.3869648 0.761088 -0.050958797 -0.15431218 -0.5670603 0.9943636 0.27582535 0.1471243
-0.00066410657 0.5249807 0.2368374 -0.33160967 -0.3750374 0.44189286 0.00909917 0.3180639
0.95698315 -0.69511336 -0.44900748 -0.49887437 -0.7527953 -0.5043281 -0.16290778 -0.32680717
-0.7625875 1.1699826 0.22087532 0.18346995 0.35782146 -0.6496507 0.13309756 0.005220015
0.9544207 -0.18913189 -0.2723366 -0.13659358 0.6141523 -0.74057555 -0.20819348 -0.092895836
-0.49939778 0.64832973 0.18698457 0.53282374 -0.647713 0.93470234 0.115744315 -0.30405977
0.617976 0.60531336 0.37975422 0.4782587 0.4502704 -0.15327612 -0.13182871 0.061513647
0.03122307 -0.5118147 0.123357065 0.15954798 -0.5628439 -0.25362778 -0.15885839 0.024403581
0.7635437 -0.17953278 -0.4363766 -0.43369594 0.7944135 0.5084154 0.28517115 0.14037238
0.39113948 -0.63175166 -0.15452372 0.079846926 -0.5713143 0.037606854 -0.008484634 -0.04227237
-0.25921306 -0.7047078 -0.04036965 0.4756802 -0.692579 0.022628322 -0.20361166 -0.64076215
0.43880704 -0.5667222 0.25970194 0.111094214 -0.3269324 -0.7798663 0.060686916 0.009753498
-0.18279298 -1.1124105 -0.23148799 -0.08060043 0.451758 0.390621 -0.32765615 0.22577655
-0.17648439 -0.9630609 -0.20585087 -0.09353888 -0.3201687 -0.09851554 -0.15863311 -0.41084048
0.131582 0.72581524 0.3095422 -0.31389907 0.63597006 -0.9626653 -0.2423322 -0.077758215
0.98453873 -0.28145185 -0.01302972 0.1692861 0.47499296 -0.6739152 -0.095528945 0.48534805
-1.255186 -0.32560807 -0.31755298 -0.50802594 -0.24208303 1.0969253 0.24989738 0.13442653
0.23059984 0.5689298 0.23559122 0.46533114 -0.6373028 -0.0653939 -0.18723616 0.2362718
00000000: 41d6 853d ca13 9fbe a7bc ec3d 33ea 863d
00000010: e142 1abf 6f3f 1f3d 9238 6fbe 43c9 ebbe
00000020: 690c 073f a271 0d3f d14a a6be 23d4 03bf
00000030: 30cc 273f ad07 ab3c 6345 c13e 02eb bf3e
00000040: 8671 4fbd b8b7 87bf e072 57be 9f3f a1bd
00000050: df36 933f 1fb7 bcbf cbc5 d7be ba88 85be
00000060: c342 b8be 66fc c3be bd92 e3bd 80ba 613e
00000070: 31be f3be b595 803f 0158 063e b9e3 a1be
00000080: 1156 523f dce7 05bf 4f00 4dbe f023 6dbc
00000090: 896e 43be 56d2 e63e 81ec e93d 9754 ca3e
000000a0: aff0 f43e ff4d 7cbe 4b28 cb3e c069 f03d
000000b0: 6131 96be 4ca9 233e e9f5 bfbe e200 a33e
000000c0: d9cf 5f3f 251a 283f bcc3 573e 8b09 bcbe
000000d0: 47f5 2f3f 5cd8 9fbe 8cd1 a73d b3a7 de3e
000000e0: 5031 0abf 7ad2 683f fdb0 133e 8111 17be
000000f0: a9fe 3b3d 958c 67bf 608b 53be 4e2a 91bd
00000100: 1190 61bd 73d0 e1be dd0a 00be 4efc f63e
00000110: 9cd3 ebbe 5dfd 96be d328 afbe 9ba6 eebc
00000120: 4202 31bf f28f d5be 043b d2be 8e90 5bbe
00000130: 8289 813f 82dd 523f 8e37 973e 2248 0b3e
00000140: b2b3 9fbe 396d 39bf 3694 56be 8f8a 8a3d
00000150: f4b0 2c3e 3d4c 27be d05f e83e 367c 42be
00000160: 511d c6bb 3c6c 103f 9940 b63d 703f 553d
00000170: be0c 26bf 6261 4a3e 1794 353e 159a a9be
00000180: 81dd 393d d533 09bf 31ca 033e db97 373e
00000190: 3687 ed3e 667a 683f 1506 6d3e 61b6 f83d
000001a0: b628 a93e cd24 80bf 5193 913c 3e55 d2bc
000001b0: 85b9 2a3f 2381 693f 290e f23c 1b1d debe
000001c0: 4020 c6be aad6 423f 2cba 50bd 0304 1ebe
000001d0: dd2a 11bf 9d8e 7e3f fb38 8d3e c1a7 163e
000001e0: 7017 2eba 2365 063f 8185 723e bec8 a9be
000001f0: e704 c0be c83f e23e af14 153c 46d9 a23e
00000200: d9fc 743f f3f2 31bf 4fe4 e5be 766c ffbe
00000210: 31b7 40bf a51b 01bf 4cd1 26be 4553 a7be
00000220: ef38 43bf fdc1 953f 242d 623e 8cdf 3b3e
00000230: 6034 b73e 824f 26bf ba4a 083e a90c ab3b
00000240: ea54 743f caab 41be b46f 8bbe 30df 0bbe
00000250: 1639 1d3f 5c96 3dbf ac30 55be 2c40 bebd
00000260: 11b1 ffbe f0f8 253f e278 3f3e 2367 083f
00000270: 85d0 25bf a748 6f3f 5b0b ed3d b9ad 9bbe
00000280: ad33 1e3f d1f5 1a3f 256f c23e 53de f43e
00000290: d889 e63e 6af4 1cbe 1bfe 06be bcf5 7b3d
000002a0: 86c7 ff3c 4a06 03bf a1a2 fc3d 8c60 233e
000002b0: 8a16 10bf 80db 81be c6ab 22be 05ea c73c
000002c0: 9a77 433f 71d7 37be c16c dfbe 650d debe
000002d0: af5e 4b3f 8327 023f f401 923e c7bd 0f3e
000002e0: 6f43 c83e 7aba 21bf 773b 1ebe c986 a33d
000002f0: a741 12bf a509 1a3d 2203 0bbc cb25 2dbd
00000300: 93b7 84be bb67 34bf a55a 25bd 5b8c f33e
00000310: db4c 31bf 085f b93c 937f 50be fd08 24bf
00000320: 51ab e03e b514 11bf a7f7 843e 5d85 e33d
00000330: af63 a7be 51a5 47bf d892 783d 23cd 1f3c
00000340: 152e 3bbe 7863 8ebf 300b 6dbe d711 a5bd
00000350: d34c e73e 7aff c73e 8cc2 a7be f831 673e
00000360: 53b8 34be 298b 76bf 92ca 52be 5091 bfbd
00000370: 27ed a3be 84c2 c9bd b870 22be af59 d2be
00000380: 6fbd 063e 07cf 393f 517c 9e3e 61b7 a0be
00000390: efce 223f 3c71 76bf ef25 78be b33f 9fbd
000003a0: bb0a 7c3f 751a 90be 9b7a 55bc 5659 2d3e
000003b0: 4732 f33e b585 2cbf aea4 c3bd 8a7f f83e
000003c0: efa9 a0bf 1ab6 a6be 4e96 a2be fd0d 02bf
000003d0: 9de4 77be 0c68 8c3f 19e5 7f3e 1ca7 093e
000003e0: 5d22 6c3e 62a5 113f d33e 713e e23f ee3e
000003f0: 4726 23bf 3ded 85bd d6ba 3fbe 3cf1 713e

l1.bias f4 [400]
-0.07150272 0.32741696 0.34487075 -0.6490881 0.056933638 0.39727157 0.6624098 -0.09876332
-0.64935493 -0.1456977 -0.25639528 -0.5895286 -0.21225733 -0.36084932 0.12553555 -0.18176079
0.533882 0.3977823 -0.40988338 -0.51541936 0.55208015 -0.71563834 0.16404814 0.72849095
0.42562574 -0.35144845 0.06268535 0.27919075 0.5159849 0.5144301 0.47744212 -0.080760755
-0.66919833 0.040961344 -0.22423075 -0.0096368585 -0.6663514 -0.55260944 0.0557208 0.08681266
-0.48417848 -0.6179813 0.36643198 0.5929502 -0.6051564 -0.40304393 -0.16989976 -0.087575965
0.19209082 0.19170697 0.2680932 -0.40677795 0.0020431485 0.19363481 0.034212057 0.030355813
-0.6624189 0.021970477 0.3323683 0.5777092 0.18433215 0.19880849 -0.21345057 0.49480638
-0.15855142 -0.2712998 0.24513334 -0.43668965 0.29197466 -0.64501405 -0.22519748 -0.15098335
-0.60336703 -0.27192846 -0.035598483 0.1899703 -0.4946615 0.32421973 0.13894562 0.620669
0.50981694 -0.3850088 -0.17034578 0.48377848 -0.14261413 -0.39741263 -0.32017902 0.47672936
0.29438683 0.34377918 -0.22892466 0.14352319 -0.5338697 -0.5361799 -0.45030007 0.5747378
-0.42664272 -0.7381225 0.081761576 0.20364058 0.13793291 0.5427036 -0.76030695 -0.34733376
-0.515874 -0.0477456 0.16290332 -0.5605954 -0.40275827 -0.5789222 -0.11393707 0.39206463
-0.47328657 -0.055592664 0.40008244 0.33337766 0.22568095 -0.5568381 0.100750946 -0.83653915
0.69528204 -0.32589674 0.38100782 0.41565672 -0.05014185 -0.6466773 0.1243172 0.58587646
-0.28919005 -0.8624839 0.2960276 -0.8819863 0.26036876 -0.16616002 0.54293394 -0.37127548
0.12428324 0.64338374 -0.47246313 -0.60828286 0.25354433 -0.47618544 0.24302724 -0.1980084
-0.44268826 0.5014547 0.36929128 -0.17683472 -0.7137482 -1.024964 -0.6541505 0.4989058
0.24969652 0.27353373 0.59000725 -0.16287306 -0.15448079 0.44197714 0.22248167 0.29455346
0.24662986 -0.6896297 0.45133168 0.41941246 0.20618638 -0.5800565 -0.7573577 0.42036206
0.025358777 0.25961453 -0.489142 0.4893617 -0.12057765 0.2745104 -0.036048807 -0.4595948
0.3565148 -0.42391104 -0.15047254 0.42222738 -0.60953313 -0.8642359 0.064900436 0.5970934
0.6910325 -0.2695224 -0.20112742 0.10145708 0.46747392 0.0733949 0.30452937 0.6396044
-0.23540084 0.40771878 0.7587127 -0.14199267 0.49332982 -0.4387975 -0.49866012 -0.20600975
0.22463335 0.4445767 0.5615969 -0.79042244 0.06840072 -0.37124774 0.14771244 -0.5903569
0.028995233 0.052345835 0.6263791 0.65672857 0.33761084 0.089645155 -0.52283776 0.21915148
-0.46080652 0.4534401 -0.54286975 0.00032488984 -0.4844576 -0.8221669 0.07628991 0.37112552
-0.21558806 0.7165118 0.24090068 0.33822173 -0.031410985 0.13100795 -0.61929977 -0.5406451
0.08436534 -0.030625839 0.0067398855 0.030687943 -0.5092378 0.28930652 0.7103782 0.43610623
-0.09626568 0.5517021 0.6813592 0.29374236 -0.5995732 -0.59447384 -0.53703725 -0.8144725
-0.04873228 -0.1389723 0.24086837 0.21828645 -0.26027066 -0.5867922 -0.53031516 0.18503936
00000000: 0570 92bd 32a3 a73e e692 b03e a32a 26bf
00000010: 3f33 693d 2e67 cb3e b093 293f 6c44 cabd
00000020: 203c 26bf c731 15be 3e46 83be 59eb 16bf
00000030: fc59 59be 3ec1 b8be 648c 003e 801f 3abe
00000040: 7eac 083f 1faa cb3e 3cdc d1be 86f2 03bf
00000050: 2055 0d3f 1334 37bf 3cfc 273e 627e 3a3f
00000060: 9eeb d93e 0df1 b3be 2d61 803d 17f2 8e3e
00000070: 9617 043f b1b1 033f 4b73 f43e e565 a5bd
00000080: 9550 2bbf 15c7 273d bf9c 65be eae3 1dbc
00000090: 0196 2abf d077 0dbf 7e3b 643d d6ca b13d
000000a0: 3ee6 f7be 0634 1ebf f99c bb3e 96cb 173f
000000b0: 88eb 1abf c65b cebe 34fa 2dbe 075b b3bd
000000c0: 75b3 443e d54e 443e 8343 893e 3345 d0be
000000d0: 58e6 053b 3448 463e f121 0c3d c1ac f83c
000000e0: 4994 29bf 6efb b33c 2e2c aa3e c0e4 133f
000000f0: 91c1 3c3e 7494 4b3e c992 5abe 4357 fd3e
00000100: 4e5b 22be cfe7 8abe 3c04 7b3e c995 dfbe
00000110: b47d 953e a41f 25bf 2b9a 66be 619b 1abe
00000120: 4376 1abf 353a 8bbe b7cf 11bd 9387 423e
00000130: 4644 fdbe 2100 a63e c347 0e3e 2ae4 1e3f
00000140: 5d83 023f e01f c5be 206f 2ebe d0b1 f73e
00000150: 7009 12be ab79 cbbe 81ee a3be df15 f43e
00000160: dfb9 963e d303 b03e 3a6b 6abe bef7 123e
00000170: afab 08bf 1643 09bf bb8d e6be 0422 133f
00000180: ea70 dabe 99f5 3cbf 9d72 a73d 2887 503e
00000190: 493e 0d3e a0ee 0a3f 7aa3 42bf bbd5 b1be
000001a0: 5210 04bf e490 43bd 21d0 263e 2e83 0fbf
000001b0: 5536 cebe 3f34 14bf d757 e9bd b2bc c83e
000001c0: 9e52 f2be 22b5 63bd 9bd7 cc3e 7ab0 aa3e
000001d0: e818 673e f18c 0ebf 8356 ce3d 6e27 56bf
000001e0: 01fe 313f f0db a6be 7513 c33e f5d0 d43e
000001f0: 8a61 4dbd a58c 25bf 049a fe3d 00fc 153f
00000200: b810 94be bfcb 5cbf ee90 973e dbc9 61bf
00000210: 0e4f 853e da25 2abe b8fd 0a3f d217 bebe
00000220: 3688 fe3d ccb4 243f b0e6 f1be 6db8 1bbf
00000230: 90d0 813e 94ce f3be 22dc 783e b7c2 4abe
00000240: 09a8 e2be 565f 003f bf13 bd3e 2914 35be
00000250: 34b8 36bf 0532 83bf 6876 27bf 9570 ff3e
00000260: 72b0 7f3e 9d0c 8c3e b70a 173f 32c8 26be
00000270: 3630 1ebe d44a e23e 3cd2 633e b6cf 963e
00000280: 8a8c 7c3e 928b 30bf f214 e73e 3bbd d63e
00000290: 8622 533e 957e 14bf 32e2 41bf b239 d73e
000002a0: 36bd cf3c 32ec 843e d270 fabe 9e8d fa3e
000002b0: 6af1 f6bd a18c 8c3e eaa7 13bd 0250 ebbe
000002c0: 1c89 b63e de0a d9be 7915 1abe 302e d83e
000002d0: 5d0a 1cbf 903e 5dbf 85ea 843d 1ddb 183f
000002e0: 82e7 303f d7fe 89be 59f4 4dbe bbc8 cf3d
000002f0: be58 ef3e 1150 963d 46eb 9b3e 1dbd 233f
00000300: eb0c 71be 84c0 d03e ff3a 423f 8766 11be
00000310: ba95 fc3e 11aa e0be 6150 ffbe 38f4 52be
00000320: 4906 663e 8f9f e33e d0c4 0f3f 2059 4abf
00000330: ad15 8c3d 2f14 bebe ee41 173e a121 17bf
00000340: 6987 ed3c 9668 563d 615a 203f 5d1f 283f
00000350: 54db ac3e e197 b73d b2d8 05bf 3f69 603e
00000360: d5ee ebbe 4d29 e83e 83f9 0abf fa55 aa39
00000370: d40a f8be 8879 52bf e23d 9c3d 2a04 be3e
00000380: 1ec3 5cbe 516d 373f abae 763e 662b ad3e
00000390: cea8 00bd f326 063e 6e8a 1ebf b867 0abf
000003a0: bcc7 ac3d 0ae3 fabc 42da dc3b 4865 fb3c
000003b0: 695d 02bf fc1f 943e 59db 353f 5149 df3e
000003c0: f126 c5bd 593c 0d3f 8e6d 2e3f 6665 963e
000003d0: a17d 19bf 702f 18bf 467b 09bf 4581 50bf
000003e0: 809b 47bd c14e 0ebe 33a6 763e 7c86 5f3e
000003f0: 3242 85be 0338 16bf bcc2 07bf f57a 3d3e

l2.weight f4 [300, 400]
-0.020233108 0.035902187 0.0010959487 -0.032172438 0.0722734 -0.05495261 0.11474951 0.08970474
0.3070937 -0.026102796 0.017639628 -0.13073967 0.06290312 0.002000356 0.078008555 0.12179036
0.04238865 0.027258083 -0.12928131 -0.0034874552 0.05874465 -0.010774131 0.019404193 0.09391666
0.021716364 0.21686159 -0.0363752 0.053870935 0.23461653 0.10822016 -0.026432976 -0.05857457
-0.045436885 0.021242388 -0.18165065 0.070320435 0.24903846 0.34672683 -0.01908237 0.061598565
-0.107524715 0.28638026 0.021518966 0.11200661 -0.037789468 -0.060598705 -0.034058247 0.28316295
0.12122627 0.024581091 -0.022491997 -0.38185188 0.095653415 -0.040882647 0.18276577 -0.04546955
-0.055227045 -0.0004870511 0.0964645 0.0974672 0.009038151 0.15824197 -0.103304036 0.03152845
0.16214685 0.22789477 -0.018921077 -0.41999078 0.0050866585 -0.08967249 -0.08345941 -0.025833292
-0.01632104 0.030432472 -0.037144296 0.043475397 0.31965366 0.16232485 -0.07079857 0.025510527
0.17808492 0.009162009 -0.13161159 0.062150393 0.004859955 0.08557845 -0.040871438 0.12504365
0.13074337 0.08392382 -0.13600937 0.12878123 -0.12418961 -0.10052605 -0.060246665 0.15656161
0.0046472843 -0.08924823 0.05036962 0.016380986 0.102904096 0.020001713 -0.07004647 0.07085661
-0.023275238 0.010310983 0.060166996 -0.03775012 -0.29744563 -0.2503753 0.009961442 0.027300127
0.016844884 -0.06479031 0.1647607 0.007898364 0.012428205 -0.048120998 0.07076861 -0.1729024
0.13957644 -0.20170392 0.06674604 0.15791753 -0.03667294 -0.072626695 0.11519528 0.205429
-0.033691574 0.045002446 0.13404058 -0.107558705 0.09441383 0.026849633 0.16657883 0.18458864
-0.019918889 0.06986183 0.05710064 -0.16799405 0.11259958 -0.04973445 -0.07126575 -0.16609351
0.22086857 0.08546338 -0.015367015 -0.025687408 -0.08825825 0.027235782 -0.03593448 0.06571269
-0.0010338012 0.09047755 0.033183947 -0.06618754 0.22867183 0.060688887 0.018098824 0.17359532
-0.047060605 -0.14570367 0.088312164 0.14011702 -0.059277833 -0.07717134 -0.10985062 0.18205176
-0.09500742 -0.055664208 -0.039344 0.15350823 0.0431605 -0.033119917 0.0048423805 -0.03430629
0.018098006 -0.05916606 -0.068248704 -0.0032835791 -0.03672683 -0.012642354 -0.027706534 0.10184211
0.10886564 -0.042968914 -0.08998279 0.16702153 0.017866716 -0.04160348 0.03905852 0.19878204
-0.13303457 0.09816087 0.048360467 -0.065304965 0.20035051 -0.032193888 -0.06189394 -0.0028113178
-0.14484933 0.07553133 0.13751924 -0.07042159 0.057887826 -0.019142741 0.06770219 0.30204853
0.06158133 0.08111565 0.13619755 0.061950386 0.14715685 0.02909412 0.20527679 0.15330674
-0.098222025 -0.03407089 -0.02304721 -0.034062117 -0.08276289 0.010809857 -0.052525245 -0.026186535
-0.032542925 0.12870423 0.15166293 0.03117349 0.0120030055 0.07841152 -0.11955537 -0.108569525
-0.041335113 0.009491121 0.14296241 0.06541302 0.041202188 -0.029207384 0.05586093 0.03836027
0.028557131 -0.008190379 0.06480322 -0.022596879 -0.017610487 -0.06849729 -0.058026206 -0.14940612
0.018527722 -0.0944007 0.0017824888 -0.014430551 -0.062019218 0.12517338 -0.065700196 0.060459502
00000000: e7bf a5bc 2c0e 133d f0a5 8f3a 3fc7 03bd
00000010: 1404 943d fd15 61bd cb01 eb3d 1eb7 b73d
00000020: 633b 9d3e 88d5 d5bc fb80 903c 9fe0 05be
00000030: 5ad3 803d 6818 033b f3c2 9f3d 396d f93d
00000040: b99f 2d3d 584c df3c 5262 04be ca8d 64bb
00000050: 3b9e 703d fb85 30bc 8bf5 9e3c 6157 c03d
00000060: 84e6 b13c f710 5e3e 29fe 14bd c5a7 5c3d
00000070: 513f 703e 88a2 dd3d f889 d8bc e3eb 6fbd
00000080: 071c 3abd 8404 ae3c a102 3abe 2904 903d
00000090: f003 7f3e 2e86 b13e a152 9cbc c74e 7c3d
000000a0: eb35 dcbd 6fa0 923e 8b48 b03c b963 e53d
000000b0: 21c9 1abd 5936 78bd a980 0bbd bcfa 903e
000000c0: 7b45 f83d 495e c93c 2341 b8bc 1782 c3be
000000d0: f0e5 c33d 9074 27bd f326 3b3e 473e 3abd
000000e0: c135 62bd e45a ffb9 2e8f c53d e29c c73d
000000f0: c114 143c 2f0a 223e 1191 d3bd fa23 013d
00000100: d309 263e 3f5d 693e 6000 9bbc 0809 d7be
00000110: fcad a63b 36a6 b7bd c4ec aabd 57a0 d3bc
00000120: b4b3 85bc 854d f93c 9e24 18bd 4213 323d
00000130: a5a9 a33e 7c38 263e d7fe 90bd 74fb d03c
00000140: e55b 363e 401c 163c 30c5 06be 6991 7e3d
00000150: 4240 9f3b c143 af3d cf68 27bd 710b 003e
00000160: 97e1 053e 40e0 ab3d 0a46 0bbe 3adf 033e
00000170: 1f57 febd 9ae0 cdbd 35c5 76bd b051 203e
00000180: 3f48 983b c7c7 b6bd 6050 4e3d 6b31 863c
00000190: 62bf d23d a2da a33c 8674 8fbd 451d 913d
000001a0: b6ab bebc 66ef 283c ab71 763d df9f 1abd
000001b0: cb4a 98be 3131 80be 5135 233c 84a4 df3c
000001c0: 48fe 893c c8b0 84bd 07b7 283e 2468 013c
000001d0: ac9f 4b3c 861a 45bd 22ef 903d 540d 31be
000001e0: 20ed 0e3e 798b 4ebe 26b2 883d 22b5 213e
000001f0: 5d36 16bd 4ebd 94bd 81eb eb3d fb5b 523e
00000200: 2d00 0abd 7c54 383d ef41 093e bd47 dcbd
00000210: 0a5c c13d c3f3 db3c a493 2a3e ce04 3d3e
00000220: f02c a3bc b813 8f3d 5ce2 693d a206 2cbe
00000230: 9c9a e63d 5ab6 4bbd c7f3 91bd 6b14 2abe
00000240: 5f2b 623e 6d07 af3d efc5 7bbc 666e d2bc
00000250: bec0 b4bd 931d df3c 0930 13bd 6094 863d
00000260: 9d80 87ba 4b4c b93d e4eb 073d 558d 87bd
00000270: f328 6a3e e994 783d fc43 943c f9c2 313e
00000280: 9fc2 40bd 5833 15be 02dd b43d d67a 0f3e
00000290: 50cd 72bd 020c 9ebd 5df9 e0bd c76b 3a3e
000002a0: 4093 c2bd 2700 64bd 2d27 21bd 4331 1d3e
000002b0: 10c9 303d c0a8 07bd d5ac 9e3b c184 0cbd
000002c0: 4542 943c 1c58 72bd fac5 8bbd 5131 57bb
000002d0: df6e 16bd e021 4fbc d0f8 e2bc 9992 d03d
000002e0: f3f4 de3d 2c00 30bd e648 b8bd b107 2b3e
000002f0: 385d 923c 6968 2abd d4fb 1f3d 858d 4b3e
00000300: 373a 08be 9108 c93d a015 463d 9cbe 85bd
00000310: af28 4d3e bddd 03bd 8084 7dbd 163e 38bb
00000320: 6253 14be 2cb0 9a3d d8d1 0c3e 3239 90bd
00000330: c91b 6d3d 3dd1 9cbc 72a7 8a3d 1ba6 9a3e
00000340: b43c 7c3d f61f a63d 5f77 0b3e b0bf 7d3d
00000350: 49b0 163e cb56 ee3c 1434 523e 71fc 1c3e
00000360: a128 c9bd eb8d 0bbd 81cd bcbc b884 0bbd
00000370: 977f a9bd d41b 313c b624 57bd 2585 d6bc
00000380: bb4b 05bd 0bcb 033e 874d 1b3e 8c5f ff3c
00000390: 41a8 443c 3896 a03d 72d9 f4bd b359 debd
000003a0: 024f 29bd a680 1b3c bd64 123e 43f7 853d
000003b0: a0c3 283d 5344 efbc 6ece 643d a91f 1d3d
000003c0: a5f0 e93c f030 06bc 8db7 843d 171d b9bc
000003d0: de43 90bc 4f48 8cbd e3ac 6dbd ebfd 18be
000003e0: 73c7 973c 2755 c1bd 66a2 e93a 1e6e 6cbc
000003f0: dd07 7ebd 732d 003e d38d 86bd 62a4 773d

l2.bias f4 [300]
0.08316886 0.11891963 0.01935036 0.12064834 0.042826585 0.014796603 0.005113131 0.1069862
0.027385697 -0.0014677213 0.06920155 0.101216756 -0.014054898 -0.017806992 -0.055156924 -0.03820197
0.030279985 0.12073253 -0.018703336 -0.014185771 0.11293307 -0.02182538 0.012727057 0.10429034
0.054832585 0.1538495 0.07952004 -0.014061335 -0.03213995 0.09466394 0.023471624 0.007198427
0.124507375 0.031016298 0.27533793 0.005167034 -0.053987756 -0.0376273 -0.0064369803 -0.058348786
-0.02161747 -0.008059748 -0.037621412 0.038614593 0.13903344 0.032168206 -0.036853235 0.060594376
-0.0144917965 0.16636865 -0.00090177933 0.00050928275 0.017728342 -0.020289442 0.007455543 -0.041283116
-0.015329034 0.0030404814 -0.02220164 -0.046944194 -0.0031290327 -0.025044885 -0.010098951 0.20605092
0.01607141 0.07890001 0.11155198 -0.034449507 0.10372266 0.08404185 0.11984991 -0.017917814
0.16750437 -0.01944174 -0.048298407 -0.041810498 0.016504174 -0.031219797 0.014855038 -0.04056423
0.1462725 -0.00046895593 0.15929228 0.25428805 0.07659185 0.014430449 -0.009866188 0.040275235
0.0008544 0.119034946 0.09947552 -0.019468576 -0.057111595 0.06545917 0.14649706 0.2423524
0.15617912 -0.04492035 0.07625683 0.023558743 0.09960924 0.0067104073 -0.013981268 0.11361036
0.11432176 0.08892186 0.089252345 0.07330532 0.0807787 0.116555 0.026241967 0.04006281
0.14663449 0.0050374414 -0.03672887 0.06303306 -0.032109566 0.008510549 0.0066894265 0.029048948
-0.02602424 0.1346785 0.07762292 0.08564796 0.1334684 -0.05329058 0.08234071 -0.049343497
0.07816395 -0.03470475 0.037332807 0.031445283 0.023526827 0.028231697 0.15198223 0.14179985
-0.051825967 0.26643422 0.12682547 0.12588544 0.027858103 -0.020127676 -0.015754135 0.016136393
0.041353278 0.0012609727 0.027611827 0.022856724 -0.023674931 -0.04789641 0.13872465 0.03569683
0.0060262284 -0.001553445 -0.053303003 8.685958e-05 0.01790506 -0.039541353 -0.052180786 0.12454565
0.08771149 0.023892675 -0.05992749 0.12579049 0.06173794 -0.055308796 0.082543276 0.06351899
-0.00087111135 -0.053047024 0.012692279 0.19421755 0.14566521 0.24351604 -0.03176631 0.14531921
-0.0333615 0.37925202 0.14423276 -0.032293182 0.13108222 0.23425187 0.011901314 0.14724849
0.14777936 0.1304272 -0.0050234813 0.016659195 0.14695984 0.13556182 0.14843892 0.08225276
0.15027583 0.14938334 -0.01871246 0.090794116 0.106147304 0.14877151 0.12268496 0.08384207
0.09682648 0.13933562 0.06757894 -0.030168043 -0.013878537 0.038769417 0.19720028 0.002487069
0.008118592 0.0037524758 0.15416764 -0.029902663 -0.05930185 0.12582032 0.14259063 -0.020908711
0.014115827 0.08449679 0.15871081 0.004603934 -0.010356145 -0.03536275 0.117441595 -0.012566821
-0.05253423 0.06571813 0.13876787 0.1263272 0.16046762 0.14905205 0.18482019 0.15185638
0.021458434 -0.02752339 0.1338007 0.11547141 0.078639 0.010601295 -0.078219846 -0.05366336
-0.0114847645 -0.031486403 0.33153093 0.03725847 0.12652193 0.17785592 -0.013940427 0.08708481
0.17553091 -0.05206644 0.010965387 0.009599272 0.15758511 -0.019097272 -0.017013857 0.002776356
00000000: 6f54 aa3d 238c f33d a584 9e3c 7a16 f73d
00000010: ee6a 2f3d 736d 723c 0d8c a73b 951b db3d
00000020: f857 e03c 8e60 c0ba 8bb9 8d3d bb4a cf3d
00000030: 8446 66bc f8df 91bc 3aec 61bd ab79 1cbd
00000040: bb0d f83c 9e42 f73d bd37 99bc 706b 68bc
00000050: 7449 e73d 24cb b2bc 2585 503c 2c96 d53d
00000060: 2298 603d b98a 1d3e 67db a23d 8361 66bc
00000070: 2ea5 03bd 2bdf c13d 9047 c03c c8e0 eb3b
00000080: b9fd fe3d e415 fe3c 18f9 8c3e 3950 a93b
00000090: 4422 5dbd 151f 1abd 4eed d2bb 23ff 6ebd
000000a0: 1f17 b1bc 090d 04bc e918 1abd 562a 1e3d
000000b0: c85e 0e3e cfc2 033d 6bf3 16bd cf31 783d
000000c0: 006f 6dbc 8b5c 2a3e 6365 6cba 6381 053a
000000d0: 073b 913c 0b36 a6bc a14d f43b 7c18 29bd
000000e0: a126 7bbc d042 473b 37e0 b5bc 8e48 40bd
000000f0: 7510 4dbb ee2a cdbc 1276 25bc 03ff 523e
00000100: 31a8 833c 5496 a13d 5d75 e43d ed1a 0dbd
00000110: 8c6c d43d 221e ac3d df73 f53d 61c8 92bc
00000120: 4486 2b3e 4944 9fbc 8dd4 45bd 7c41 2bbd
00000130: c333 873c a9c0 ffbc 8c62 733c ae26 26bd
00000140: 75c8 153e 33de f5b9 841d 233e 0b32 823e
00000150: 30dc 9c3d b16d 6c3c cba5 21bc a5f7 243d
00000160: d0f9 5f3a 98c8 f33d d2b9 cb3d 907c 9fbc
00000170: d9ed 69bd 750f 863d 5303 163e 3a2b 783e
00000180: 6bed 1f3e 67fe 37bd 8a2c 9c3d 44fe c03c
00000190: eeff cb3d fae2 db3b b011 65bc 8cac e83d
000001a0: 8721 ea3d aa1c b63d efc9 b63d 1a21 963d
000001b0: 4e6f a53d 63b4 ee3d 65f9 d63c e718 243d
000001c0: 5a27 163e 1f11 a53b 0371 16bd 7a17 813d
000001d0: 5285 03bd d46f 0b3c fa32 db3b 0ff8 ed3c
000001e0: c930 d5bc 29e9 093e c4f8 9e3d 3368 af3d
000001f0: f1ab 083e 3947 5abd 3fa2 a83d 681c 4abd
00000200: 6c14 a03d 9126 0ebd 49ea 183d c5cc 003d
00000210: 55bb c03c 2946 e73c 3ba1 1b3e fb33 113e
00000220: 7747 54bd 116a 883e 89de 013e 1de8 003e
00000230: ad36 e43c cce2 a4bc d10e 81bc 7830 843c
00000240: 0e62 293d 3947 a53a 3332 e23c 063e bb3c
00000250: eef1 c1bc 072f 44bd d60d 0e3e d736 123d
00000260: ab77 c53b f79c cbba 4054 5abd 6228 b638
00000270: a2ad 923c 1df6 21bd 85bb 55bd ca11 ff3d
00000280: 15a2 b33d 92ba c33c 8776 75bd 39cf 003e
00000290: ece0 7c3d 7a8b 62bd 730c a93d 3f16 823d
000002a0: 4b5b 64ba d647 59bd 47f3 4f3c f7e0 463e
000002b0: 4329 153e 455c 793e 641d 02bd 8fce 143e
000002c0: 11a6 08bd 522d c23e c1b1 133e db45 04bd
000002d0: 6b3a 063e b9df 6f3e bbfd 423c 4fc8 163e
000002e0: 7953 173e b58e 053e 049c a4bb dd78 883c
000002f0: a47c 163e b8d0 0a3e 5f00 183e 2374 a83d
00000300: e8e1 193e f2f7 183e df4a 99bc 44f2 b93d
00000310: c263 d93d 8f57 183e 4142 fb3d 64b5 ab3d
00000320: f64c c63d ffad 0e3e d466 8a3d f922 f7bc
00000330: ce62 63bc aecc 1e3d dfee 493e 18fe 223b
00000340: d803 053c 19ec 753b 1fde 1d3e 6ef6 f4bc
00000350: 7fe6 72bd 0bd7 003e 4703 123e bf48 abbc
00000360: 1246 673c a70c ad3d 1685 223e 99dc 963b
00000370: d2ac 29bc 88d8 10bd 3885 f03d 11e5 4dbc
00000380: 222e 57bd 3a97 863d 2a19 0e3e eb5b 013e
00000390: a051 243e 1aa1 183e 8141 3d3e 3d80 1b3e
000003a0: 99c9 af3c bb78 e1bc 0d03 093e 467c ec3d
000003b0: 7c0d a13d 0eb1 2d3c ba31 a0bd 1dce 5bbd
000003c0: 982a 3cbc e3f7 00bd 6cbe a93e 569c 183d
000003d0: f78e 013e dd1f 363e 6466 64bc 8559 b23d
000003e0: 60be 333e 9f43 55bd 2ba8 333c 4446 1d3c
000003f0: fe5d 213e e271 9cbc a560 8bbc 86f3 353b

l3.weight f4 [1, 300]
-0.12667942 -0.122149445 0.028185965 -0.13299878 0.032089435 -7.642066e-05 0.04759318 -0.14447996
0.038024146 0.0049317293 -0.097562835 -0.11015518 0.021311274 -0.022016343 0.035027176 0.037141956
-0.000590039 -0.25683922 0.031948138 0.04741979 -0.08934362 -0.00016959406 0.0042471676 -0.15804824
-0.084557526 -0.1538107 -0.10384155 0.014503404 0.004243682 -0.1591654 0.014934847 -0.029570239
-0.24004598 0.025192946 -0.39090317 -0.0005959864 -0.035401486 0.0077078342 0.00038030723 0.047891527
0.008542922 0.031140579 0.016791958 0.0010553993 -0.1888214 0.011740327 0.006853377 -0.18053977
0.018012412 -0.1383214 0.015435148 0.044807527 -0.3126363 0.04559515 0.025533473 0.013832733
0.029453708 0.029992584 -0.001619577 -0.0037080285 -0.0077272537 0.015312524 0.009972402 -0.8144983
0.003774323 -0.16657263 -0.092535555 -0.030171027 -0.19488148 -0.114939675 -0.087793946 -0.017024264
-1.163806 0.0052078557 -0.006033038 0.024842152 0.008205108 0.0458947 0.021047246 0.0028249875
-0.10421863 0.026360817 -0.15456279 -0.6476734 -0.19679081 0.017076982 0.045761596 0.030987117
0.002813003 -0.3057936 -0.08370979 0.047706217 -0.0032958132 -0.101554915 -0.2775313 -0.38930467
-0.14723021 0.044325262 -0.14931875 -0.00813478 -0.10480149 0.0072692153 0.03332797 -0.15668406
-0.09705772 -0.11432997 -0.18077073 -0.105293185 -0.12900504 -0.27398008 0.041143917 0.0092455
-0.10058667 0.020919893 0.017999811 -0.12091267 -0.0062641497 0.041988224 0.022798155 0.040263675
0.004212413 -0.10428328 -0.100421526 -0.14356782 -0.13797697 -0.0037755182 -0.099263914 0.036539856
-0.119059205 0.0019701913 0.040234305 0.039309654 0.033666603 0.0014801683 -0.12675321 -0.89332545
0.048992377 -0.35643017 -0.28118676 -0.16324542 0.029956749 0.009745781 -0.0043026553 0.043085244
0.007211714 0.0102571435 0.019610513 0.032360177 -0.02681002 0.021850402 -0.09397197 0.0063673467
0.029747073 0.045103166 0.030761315 0.017262438 0.031294435 0.03763568 0.029357478 -0.11329269
-0.09249654 0.0104631735 0.019901605 -0.35295457 -0.0937654 0.005308511 -0.100829355 -0.13354911
0.011289159 0.0063062515 0.013696428 -0.5261923 -0.13674079 -0.9220379 -0.0024143644 -0.1990537
0.050938547 1.4691646 -0.104697786 0.027162142 -0.13906418 -0.63036734 0.0015398234 -0.14175615
-1.1419184 -0.13616031 0.034481585 0.03390053 -0.105065554 -0.11397238 -0.0992553 -0.09777936
-0.16620688 -0.109274305 -0.0035614513 -0.104320474 -0.16182017 -0.11246471 -0.11911287 -0.13047194
-0.11074158 -0.33662677 -0.14614433 -0.00037461403 0.047804587 0.041861493 -0.84354556 0.008595939
-0.034586456 0.018060379 -0.113252565 0.019588266 0.028888097 -0.093289085 -0.08036607 0.04421351
0.01849628 -0.12495233 -0.09342739 0.016165303 0.045801036 -0.014708038 -0.13186024 0.0032597303
-0.0027999762 -0.09287941 -0.12855786 -0.12996836 -0.15150298 -0.24008682 -0.17301397 -0.10002087
0.039913975 0.028250342 -0.11859353 -0.15964817 -0.11955795 0.0069521065 -0.0066463696 0.022194445
0.011493942 -0.003647868 -0.64429945 0.0011347096 -0.103240974 -0.34531805 0.039625037 -0.44775382
-0.61813486 0.0036193568 0.030579785 -0.012982946 -0.10958338 0.039572135 0.03366748 0.023860455
00000000: 40b8 01be 7d29 fabd 41e6 e63c d530 08be
00000010: 3670 033d 0844 a0b8 11f1 423d 8ef2 13be
00000020: 35bf 1b3d 589a a13b 06cf c7bd 0a99 e1bd
00000030: fb94 ae3c 9e5b b4bc a878 0f3d 2a22 183d
00000040: d9ac 1aba 6e80 83be 0ddc 023d 413b 423d
00000050: caf9 b6bd 0fd5 31b9 d32b 8b3b 66d7 21be
00000060: 7f2c adbd 8d80 1dbe e1aa d4bd af9f 6d3c
00000070: 960e 8b3b 41fc 22be 4ab1 743c 493d f2bc
00000080: 9dce 75be 7061 ce3c 7624 c8be f83b 1cba
00000090: 2601 11bd 0092 fc3b f963 c739 e829 443d
000000a0: 9df7 0b3c 871a ff3c 4a8f 893c 5355 8a3a
000000b0: 665a 41be 805a 403c 4b92 e03b 6bdf 38be
000000c0: c48e 933c 20a4 0dbe b4e3 7c3c 1988 373d
000000d0: dd11 a0be fbc1 3a3d 932b d13c b0a2 623c
000000e0: e748 f13c 02b3 f53c fc47 d4ba 6502 73bb
000000f0: e734 fdbb 61e1 7a3c 4963 233c f682 50bf
00000100: a25a 773b 0492 2abe 4883 bdbd 3b29 f7bc
00000110: 038f 47be 7e65 ebbd 50cd b3bd 7876 8bbc
00000120: 98f7 94bf a9a6 aa3b cab0 c5bb c581 cb3c
00000130: b86e 063c 15fc 3b3d 466b ac3c 6d23 393b
00000140: 9470 d5bd a4f2 d73c b545 1ebe edcd 25bf
00000150: 8883 49be 07e5 8b3c 8370 3b3d b2d8 fd3c
00000160: 5c5a 383b fb90 9cbe 0a70 abbd 9867 433d
00000170: 92fe 57bb 06fc cfbd 9518 8ebe f152 c7be
00000180: 84c3 16be 688e 353d 04e7 18be be47 05bc
00000190: 2aa2 d6bd 9932 ee3b e982 083d c971 20be
000001a0: 33c6 c6bd d525 eabd f61b 39be f4a3 d7bd
000001b0: e619 04be 1e47 8cbe 8686 283d 707a 173c
000001c0: 6200 cebd 3260 ab3c 5774 933c 10a1 f7bd
000001d0: 7f43 cdbb d8fb 2b3d 32c3 ba3c 86eb 243d
000001e0: 4808 8a3b 7992 d5bd cda9 cdbd 7103 13be
000001f0: d649 0dbe af6e 77bb e14a cbbd d1aa 153d
00000200: 50d5 f3bd 531e 013b bacc 243d 2903 213d
00000210: fee5 093d 3502 c23a 98cb 01be fab0 64bf
00000220: 3bac 483d 047e b6be b6f7 8fbe cf29 27be
00000230: db67 f53c c5ac 1f3c 4afd 8cbb 277a 303d
00000240: 3e50 ec3b 940d 283c 3aa6 a03c 1b8c 043d
00000250: b0a0 dbbc 9dff b23c 6074 c0bd 2da5 d03b
00000260: 22b0 f33c 19be 383d 27ff fb3c f569 8d3c
00000270: 982e 003d df27 1a3d 187f f03c ff05 e8bd
00000280: d36e bdbd bb6d 2b3c b108 a33c 76b6 b4be
00000290: 1308 c0bd 05f3 ad3b 9f7f cebd 19c1 08be
000002a0: 2af6 383c aca4 ce3b fc66 603c 8ab4 06bf
000002b0: c705 0cbe ad0a 6cbf 503a 1ebb bcd4 4bbe
000002c0: f0a4 503d 960d bc3f cb6b d6bd 2483 de3c
000002d0: d766 0ebe c15f 21bf e6d3 c93a 8628 11be
000002e0: 622a 92bf 9c6d 0bbe 903c 0d3d 48db 0a3d
000002f0: 9c2c d7bd 5a6a e9bd 5d46 cbbd 8c40 c8bd
00000300: 2332 2abe 35cb dfbd 3d67 69bb f9a5 d5bd
00000310: 30b4 25be e653 e6bd 73f1 f3bd 709a 05be
00000320: 7bcc e2bd 585a acbe dca6 15be d867 c4b9
00000330: bece 433d f576 2b3d 9af2 57bf fbd5 0c3c
00000340: 87aa 0dbd 5cf3 933c f6f0 e7bd 9277 a03c
00000350: bba6 ec3c 590e bfbd f796 a4bd 3a19 353d
00000360: 8385 973c 02e7 ffbd dc56 bfbd 196d 843c
00000370: de99 3b3d fcf9 70bc 5f06 07be 33a1 553b
00000380: ce7f 37bb 8f37 bebd aca4 03be 6d16 05be
00000390: 9923 1bbe 52d9 75be 932a 31be bed7 ccbd
000003a0: d67c 233d 436d e73c 2ae1 f2bd cf7a 23be
000003b0: ccda f4bd 7fce e33b cac9 d9bb 20d1 b53c
000003c0: 1651 3c3c 1211 6fbb cff0 24bf 89ba 943a
000003d0: 0170 d3bd 87cd b0be dd4d 223d fd3f e5be
000003e0: 163e 1ebf bb32 6d3b 7582 fa3c 6cb6 54bc
000003f0: 406d e0bd 6416 223d e9e6 093d 0077 c33c
